deep_learning_models/best_lda_model.pth (torch, 182010 bytes, 16 tensors)

model.0.weight f4 [256, 3]
0	0x3e0fd4aa	0.14045969
1	0xbecc1608	-0.39860559
2	0x3e470046	0.19433698
3	0x3e5a54ae	0.21321365
4	0xbea7db9f	-0.32784745
5	0x3db97afc	0.090566605
6	0x3d8dfad6	0.06932609
7	0x3c3710fc	0.011173483
8	0xbf0e9ae9	-0.55705124
9	0x3ea8a444	0.32937825
10	0xbe471841	-0.19442846
11	0x3ebbc63f	0.36674687
12	0x3ea2121e	0.31654447
13	0xbef8b2ec	-0.48574007
14	0x3e87a775	0.26494947
15	0xbe9ad635	-0.30241552
16	0xbeaff00d	-0.34362832
17	0xbe097adf	-0.13425778
18	0x3ea7224a	0.32643348
19	0xbef1257a	-0.47098905
20	0xbe5bebdf	-0.21476696
21	0x3c3acb28	0.011400975
22	0x3e32a05d	0.17443986
23	0xbec50df1	-0.384872
24	0x3e9ac891	0.30231145
25	0xbe705d27	-0.23473035
26	0xbec1823d	-0.37794676
27	0xbea863e9	-0.32888725
28	0x3d186067	0.03720131
29	0xbe2da339	-0.16956796
30	0x3dddd9b4	0.10832539
31	0xbe63effc	-0.22259516
32	0xbe977d31	-0.295877
33	0x3f0125f5	0.5044854
34	0x3e4fbbb0	0.20286441
35	0xbdfab6b6	-0.122418806
36	0x3ec563c5	0.3855268
37	0x3ccf8a80	0.025334597
38	0x3e86b627	0.26310846
39	0xbf0885d1	-0.5332919
40	0xbf0ea752	-0.5572406
41	0x3e093b7c	0.13401598
42	0xbe4390a8	-0.1909815
43	0xbdfe8611	-0.12427915
44	0x3dfa7013	0.12228408
45	0x3e86409d	0.2622117
46	0xbc0a20f8	-0.008430712
47	0x3e9fdcb4	0.3122307
48	0x3f13855f	0.57625383
49	0xbef00ad7	-0.4688327
50	0x3f0a1314	0.5393536
51	0x3d474853	0.048652958
52	0xbd9f9770	-0.07792556
53	0xbec1144e	-0.37710804
54	0xbf085b16	-0.53263986
55	0x3edd7918	0.4325645
56	0x3e15ea69	0.14640202
57	0xbf165c04	-0.58734155
58	0x3dbcd602	0.09220506
59	0xbca1b1ea	-0.019738156
60	0x3efbcf8f	0.49181792
61	0xbd80504e	-0.06265317
62	0x3eac3b5c	0.33639038
63	0x3f04dbfe	0.5189818
64	0x3efb937c	0.4913596
65	0xbe89245a	-0.26785547
66	0x3e7c347f	0.246294
67	0xbe4011c3	-0.18756776
68	0x3c33973d	0.010961351
69	0x3d4a0f1f	0.049330827
70	0x3ee099a4	0.43867218
71	0x3f05f897	0.52332443
72	0x3e55c4eb	0.208759
73	0x3f06857f	0.5254745
74	0xbdb53015	-0.088470615
75	0x3eef7f07	0.46776602
76	0x3eb4afbb	0.35290322
77	0xbeed7bad	-0.4638342
78	0x3ea2d033	0.31799468
79	0xbe12539d	-0.14289708
80	0x3e99361f	0.29924104
81	0x3f0f3c26	0.55951154
82	0x3ec233a4	0.37930024
83	0x3ee2962f	0.44255206
84	0xbeec57a3	-0.46160612
85	0xbe3b7ca9	-0.18309273
86	0x3d777e3a	0.060423113
87	0xbdded08e	-0.108796224
88	0x3df4689e	0.11934017
89	0xbe29de8a	-0.16588798
90	0xbe316ae0	-0.17325926
91	0x3ea9f585	0.3319513
92	0x3f0f0988	0.5587392
93	0xbe997cae	-0.29977936
94	0xbe9074ea	-0.28214198
95	0x3e75853b	0.23976605
96	0xbe63e9cb	-0.22257154
97	0x3e92fda6	0.28709143
98	0x3eee49e0	0.46540737
99	0x3dca8c88	0.098900855
100	0xbe912208	-0.28346276
101	0xbec648e8	-0.38727498
102	0xbe9e8d4f	-0.30967185
103	0xbf098d78	-0.5373149
104	0x3e35a8b7	0.17740141
105	0xbe3381e5	-0.1753002
106	0xbf1092ec	-0.56474185
107	0xbe12ebd4	-0.14347774
108	0xbe9b38f5	-0.30316892
109	0x3edf1e2b	0.43577704
110	0x3f0edb55	0.55803424
111	0x3e282174	0.16419011
112	0x3f06a8f9	0.5260158
113	0xbe9bef67	-0.30456087
114	0x3eec2fe9	0.46130303
115	0xbec0a110	-0.3762288
116	0x3d861c14	0.06548324
117	0x3eb3921b	0.35072407
118	0xbef7d627	-0.48405573
119	0x3df12cdc	0.11776134
120	0x3ce45aa7	0.027875258
121	0x3e8eb279	0.2787054
122	0x3eb3cce1	0.35117248
123	0xbe8ec005	-0.27880874
124	0x3f0d144e	0.5510911
125	0x3e14fc88	0.14549458
126	0x3d840339	0.06445927
127	0xbdb5bcfc	-0.088739365
128	0x3e1d7108	0.15375149
129	0x3deef329	0.11667473
130	0xbe1cf686	-0.15328416
131	0xbeacab00	-0.33724213
132	0x3f0f6eb0	0.5602827
133	0xbf040ebf	-0.51585
134	0x3e01c054	0.12671024
135	0x3f03453c	0.5127752
136	0xbe8c935d	-0.2745618
137	0x3db5775a	0.08860655
138	0xbde935df	-0.11387228
139	0x3c85ef01	0.016349318
140	0xbebb9372	-0.3663593
141	0xbea0792d	-0.3134245
142	0xbed8da52	-0.42354065
143	0x3ed9a9d1	0.42512372
144	0xbe26b80b	-0.16281144
145	0x3e55253a	0.20814982
146	0x3e1213f3	0.14265423
147	0xbeb5e6a0	-0.35527515
148	0xbe61ed9d	-0.22063299
149	0xbda9e7bd	-0.08296154
150	0x3dbda15d	0.09259293
151	0x3d7fdae0	0.062464595
152	0xbee9b1d6	-0.4564349
153	0x3d9b9908	0.07597548
154	0xbc760ff4	-0.015018452
155	0x3e86ebd1	0.2635179
156	0xbe96f60e	-0.294846
157	0xbdc4a767	-0.09602242
158	0x3e96f73e	0.29485506
159	0x3da4532e	0.08023678
160	0x3d6755a7	0.05647817
161	0x3db2a583	0.08722975
162	0xbebcf3f9	-0.36904886
163	0xbe84c2fe	-0.25930017
164	0x3c448266	0.01199398
165	0x3d8b01e3	0.06787469
166	0x3ea02a94	0.31282485
167	0x3e348be0	0.17631483
168	0xbedb967a	-0.42888242
169	0xbf03ada5	-0.51436836
170	0x3ed0b175	0.4076039
171	0x3e4d9dca	0.20079723
172	0x3df53024	0.11972073
173	0x3f09b17e	0.53786457
174	0x3e689681	0.22713663
175	0x3f047c64	0.51752305
176	0x3e311a1e	0.17295119
177	0x3eb07a66	0.34468383
178	0x3f0abf00	0.5419769
179	0xbe4667a0	-0.19375467
180	0x3c64c0fa	0.013962025
181	0xbf09fa4d	-0.53897554
182	0xbece7a1b	-0.40327534
183	0xbccccde7	-0.025000526
184	0xbd5a759a	-0.05333481
185	0x3e90ecd6	0.2830569
186	0x3e9cdc9e	0.30637068
187	0xbeb581c7	-0.35450575
188	0x3e0909d2	0.13382652
189	0x3d27b4df	0.040943976
190	0x3e1ca3ae	0.15296814
191	0x3f0015cc	0.5003326
192	0x3d2f890c	0.042855307
193	0xbf0747b9	-0.52843815
194	0x3e1e0cd2	0.15434578
195	0x3f17895c	0.5919397
196	0x3ed325df	0.4123983
197	0xbf066cd8	-0.5250983
198	0xbc902934	-0.017597772
199	0x3ca28cd0	0.019842535
200	0x3ea7f492	0.3280378
201	0x3e100ff6	0.14068589
202	0xbed8460b	-0.4224094
203	0x3ed4b738	0.41546035
204	0xbe007e67	-0.12548219
205	0xbda44a3a	-0.0802197
206	0x3e5016ca	0.20321193
207	0x3ebc9c15	0.3683783
208	0xbee1b920	-0.44086552
209	0xbdcb1896	-0.09916799
210	0x3e073cc3	0.13206773
211	0x3a25364d	0.0006302342
212	0x3d89825e	0.06714319
213	0x3ee67664	0.450122
214	0x3e7b89f9	0.24564351
215	0x3edf9f23	0.436761
216	0x3f0bc424	0.5459616
217	0x3e3ac04f	0.18237422
218	0xbece31b2	-0.4027229
219	0x3f12be71	0.5732184
220	0xbe3c76df	-0.1840472
221	0x3e8e9c89	0.27853802
222	0xbe54700f	-0.20745872
223	0x3d566f3a	0.052352168
224	0x3e5d5d22	0.21617559
225	0x3c4be264	0.012444112
226	0xbd3aa230	-0.04556483
227	0xbe86885e	-0.26275915
228	0xbeee498b	-0.46540484
229	0xbcab58a5	-0.020916292
230	0xbd77050a	-0.06030754
231	0x3ef3cf7f	0.47619244
232	0x3d68f9aa	0.056878723
233	0xbeeb24c1	-0.45926479
234	0x3e5d42c6	0.21607503
235	0xbd755716	-0.059897505
236	0xbebce285	-0.3689157
237	0x3ce0a6a4	0.02742321
238	0xbec79b1c	-0.38985527
239	0xbebf1c95	-0.37326494
240	0x3d8a804d	0.06762753
241	0xbeceea5a	-0.4041317
242	0x3ebd1fa1	0.36938193
243	0xbeb49c6a	-0.35275584
244	0x3ea4bf82	0.3217736
245	0x3e940163	0.28907308
246	0xbf022d21	-0.5085011
247	0x3edb2919	0.42804793
248	0x3ed583bc	0.41702068
249	0x3bec8611	0.0072181304
250	0xbe4c9b4a	-0.19981113
251	0xbdd1f76f	-0.10252272
252	0x3ba2dd9a	0.0049702646
253	0xbd0eeea3	-0.03489555
254	0xbca14f89	-0.019691246
255	0xbaecd3a0	-0.001806844

model.0.bias f4 [256]
0	0xbe2cf57f	-0.16890524
1	0xbed72659	-0.42021444
2	0x3eb7eb26	0.35921592
3	0xbe8c73a7	-0.27431986
4	0xbedaabe5	-0.4270927
5	0xbdaadf5c	-0.08343384
6	0x3e708a82	0.23490337
7	0x3eab80c7	0.33496687
8	0x3d577547	0.05260208
9	0xbdcd0e60	-0.100125074
10	0xbe49f998	-0.19724119
11	0x3e30664e	0.17226526
12	0xbec26865	-0.37970272
13	0xbd8a7979	-0.0676145
14	0xbed051c6	-0.40687388
15	0x3e7f1b4e	0.2491276
16	0x3da8dc31	0.08245123
17	0x3ec94fe8	0.39318776
18	0x3ef47d96	0.47752064
19	0xbe8bb123	-0.27283582
20	0xbe182909	-0.14859404
21	0x3e337fb7	0.17529188
22	0xbe957132	-0.29187924
23	0xbf063d55	-0.52437335
24	0xbda06542	-0.078318134
25	0x3ee80a23	0.45320234
26	0x3e2488bc	0.16067785
27	0xbd82093a	-0.06349416
28	0xbed38584	-0.41312802
29	0x3efa5e87	0.48900244
30	0x3d5d4211	0.054018084
31	0x3e882951	0.26594022
32	0x3f12b396	0.57305276
33	0xbe9141a6	-0.28370398
34	0x3ee505ed	0.44731084
35	0xbedf1b11	-0.43575338
36	0xbe9ec5fe	-0.3101043
37	0xbedf4506	-0.43607348
38	0xbd9dcb47	-0.07704788
39	0x3e9bf177	0.3045766
40	0xbee9f205	-0.4569246
41	0xbe960220	-0.29298496
42	0x3ec19ca8	0.37814832
43	0xbe17befe	-0.14818951
44	0xbe8a4c7a	-0.27011472
45	0x3cdea062	0.027176086
46	0xbef5e387	-0.48025152
47	0xbe4f15cb	-0.20223157
48	0xbdcfc2a5	-0.101445474
49	0xbefe8076	-0.49707383
50	0xbddc4eb4	-0.10757199
51	0x3e9e3e8b	0.30907091
52	0xbf0e7cdc	-0.5565927
53	0x3f005f19	0.5014511
54	0xbe9a77f7	-0.3016965
55	0x3ec367be	0.38165087
56	0x3e8655b1	0.26237252
57	0x3e661515	0.2246898
58	0x3e643525	0.22285898
59	0xbedcfdec	-0.43162477
60	0xbe9b2637	-0.30302593
61	0x3f02823a	0.5097996
62	0xbec14b06	-0.3775255
63	0x3e663251	0.22480132
64	0xbf03b672	-0.51450264
65	0xbf083b81	-0.53215796
66	0x3f0a1cdc	0.53950286
67	0x3eddc7e8	0.4331658
68	0xbe27954c	-0.16365546
69	0xbee9fda8	-0.45701337
70	0xbea0ee10	-0.31431627
71	0xbf0084e2	-0.50202763
72	0xbf0f5fed	-0.56005746
73	0xbeadfdd1	-0.3398271
74	0xbe370028	-0.17871153
75	0x3c78fb5b	0.015196647
76	0xbab0cb5c	-0.001348834
77	0xbe90c2cc	-0.28273618
78	0x3ea71d1d	0.326394
79	0x3ec26d3a	0.37973958
80	0xbb2e01b0	-0.0026551299
81	0xbe39c33d	-0.18140884
82	0x3dec13b4	0.115271956
83	0xbe9f4600	-0.31108093
84	0x3ecb4be6	0.39706343
85	0xbe5f3cc3	-0.21800523
86	0xbb9e3f15	-0.0048292973
87	0xbe896bc5	-0.26840034
88	0xbdfa3d5c	-0.122187346
89	0xbf025f9f	-0.50927156
90	0x3e5a1fb6	0.2130116
91	0x3f0b4dd5	0.5441564
92	0xbe73ba2f	-0.23801492
93	0xbc578497	-0.0131541705
94	0x3ddb5136	0.10708849
95	0x3e099451	0.13435484
96	0xbe710ffd	-0.23541255
97	0xbe8bee47	-0.2733023
98	0x3e07aad1	0.13248755
99	0xbef85fe6	-0.48510665
100	0x3f081028	0.5314965
101	0x3e2ec860	0.17068624
102	0xbe906e3b	-0.282091
103	0xbed9d5a7	-0.42545816
104	0xbea06139	-0.31324175
105	0xbe012658	-0.12612283
106	0xbf070763	-0.52745646
107	0x3ec8eb46	0.39242
108	0xbe37b4c7	-0.17940055
109	0x3e900029	0.28125122
110	0xbdc29c7c	-0.09502503
111	0xbdde8f64	-0.10867193
112	0x3f0f5acf	0.5599794
113	0xbec452ff	-0.3834457
114	0xbee3547d	-0.44400397
115	0x3ea39fb4	0.3195778
116	0xbe61cd02	-0.2205086
117	0x3e5fc1d5	0.21851285
118	0x3ebd04d7	0.36917755
119	0x3ed13fc7	0.4086897
120	0xbf029cb3	-0.51020354
121	0x3bbf77e2	0.0058431486
122	0x3f046aaa	0.51725256
123	0x3e56782d	0.20944281
124	0xbe9c5832	-0.30536038
125	0x3e7334b8	0.2375058
126	0x3e9f5fa5	0.31127658
127	0x3dc97407	0.098365836
128	0x3e0d5dc4	0.138053
129	0xbf12e75a	-0.57384264
130	0xbf0c3fa7	-0.54784626
131	0xbf05eb92	-0.52312577
132	0xbeb4826a	-0.35255748
133	0x3ecadd9c	0.396222
134	0x3ed44059	0.41455343
135	0xbe18c7a1	-0.14919902
136	0x3da6a212	0.08136381
137	0xbec8693f	-0.39142796
138	0xbe87f694	-0.26555312
139	0xbd1a4fb7	-0.03767368
140	0x3ec10628	0.3770001
141	0x3e1b1311	0.15143992
142	0x3ef7f55a	0.48429376
143	0x3efcac03	0.49349985
144	0xbe92b989	-0.28657177
145	0x3ed5706e	0.4168734
146	0xbf01f4bc	-0.5076406
147	0xbce4e52b	-0.027941307
148	0x3d21d057	0.03950533
149	0xbe0794bd	-0.13240333
150	0x3e91e2fc	0.28493488
151	0x3dbc49ab	0.091937385
152	0xbd907853	-0.070542
153	0xbe341546	-0.1758624
154	0xbe80ce22	-0.25157267
155	0x3e2d4d8d	0.16924115
156	0xbee212b1	-0.44154885
157	0x3cd4887d	0.025943989
158	0xbc1b4be5	-0.009478544
159	0xbec0053e	-0.37504
160	0xbe80e599	-0.2517517
161	0xbe039893	-0.12851171
162	0xbeb2bff8	-0.34912086
163	0xbedb9398	-0.42886043
164	0xbe92b8cc	-0.28656614
165	0x3f036ae1	0.5133496
166	0xbf10e82d	-0.5660427
167	0xbed1f258	-0.41005206
168	0xbeffb324	-0.4994136
169	0xbefb443a	-0.4907549
170	0xbd786109	-0.060639415
171	0xbe9b831d	-0.3037347
172	0xbeb52d18	-0.35385966
173	0xbef46dd6	-0.47740048
174	0xbe35df78	-0.17761028
175	0x3ddc20cd	0.10748444
176	0xbdb2c3a3	-0.08728721
177	0x3e90cbdf	0.2828054
178	0xbe616a71	-0.2201326
179	0xbeea5f17	-0.45775673
180	0x3e227b8c	0.15867442
181	0xbe5b0c97	-0.21391521
182	0xbdad1be2	-0.08452584
183	0x3d32dcbd	0.043667544
184	0x3edc8f44	0.43078053
185	0x3e14afb3	0.14520149
186	0x3ea324bf	0.31863973
187	0xbe169bc8	-0.14707863
188	0x3beac795	0.0071649053
189	0xbeac49d9	-0.3365009
190	0x3e146bea	0.14494291
191	0x3f01aa7b	0.5065076
192	0x3f0ca171	0.5493384
193	0xbea24fea	-0.31701595
194	0x3e0d44ff	0.13795851
195	0xbea42e32	-0.32066494
196	0xbd4f8149	-0.050660405
197	0x3e896cff	0.2684097
198	0xbdaa38ba	-0.08311601
199	0x3ec9b44e	0.39395374
200	0xbf0a4fc4	-0.5402796
201	0xbdead652	-0.114666596
202	0x3ea2eee0	0.31822872
203	0x3dc1eae2	0.094686285
204	0x3e49d262	0.19709161
205	0xbed437aa	-0.41448718
206	0xbf0f6896	-0.5601896
207	0xbd90a125	-0.07061986
208	0x3edef6fc	0.4354781
209	0xbf10720b	-0.56424016
210	0xbece31db	-0.40272412
211	0xbf075572	-0.52864754
212	0x3dc8a877	0.09797757
213	0x3eb8e25d	0.361102
214	0xbe5e6492	-0.21718052
215	0x3e60e46f	0.2196214
216	0x3efcb961	0.49360183
217	0x3ec29b4d	0.3800911
218	0x3ef29bb9	0.47384432
219	0x3ecefcd3	0.40427265
220	0xbee4e3b6	-0.4470498
221	0xbf10c7ef	-0.56555074
222	0xbe2b273c	-0.16714185
223	0xbe8526fe	-0.2600631
224	0xbe0243f4	-0.12721235
225	0x3d88fd0d	0.066888906
226	0xbe1d7274	-0.15375692
227	0xbf077f73	-0.5292885
228	0x3dce820e	0.100834
229	0x3eef2729	0.46709564
230	0xbe608d04	-0.21928793
231	0xbe3034e1	-0.17207672
232	0x37a43fe8	1.9580082e-05
233	0x3ef0cac0	0.47029686
234	0xbe30adcb	-0.17253797
235	0xbebf90bf	-0.3741512
236	0x3f0d41a5	0.5517829
237	0xbed73d00	-0.42038727
238	0x3eff9af4	0.49922907
239	0x3ec2875e	0.37993902
240	0x3f12724d	0.5720566
241	0x3eb4b74c	0.35296094
242	0x3d4fe529	0.050755654
243	0x3eadff24	0.3398372
244	0xbf038481	-0.5137406
245	0xbf08d576	-0.53450716
246	0xbba717af	-0.005099259
247	0xbdd7eb36	-0.1054291
248	0xbefabd56	-0.48972577
249	0xbee77b08	-0.45211053
250	0x3e126624	0.14296776
251	0xbf11c95d	-0.5694788
252	0x3e61ee73	0.22063617
253	0xbe80c657	-0.2515132
254	0x3cdc462d	0.026888931
255	0xbce81d5b	-0.02833431

model.1.weight f4 [256]
0	0x3f817f47	1.0116967
1	0x3f80a492	1.0050223
2	0x3f7dd15a	0.9914757
3	0x3f7fc903	0.99916095
4	0x3f821a3f	1.016426
5	0x3f7e898b	0.99428624
6	0x3f7eca5d	0.9952753
7	0x3f7c5333	0.9856445
8	0x3f800d97	1.0004147
9	0x3f80bbae	1.0057275
10	0x3f7dddfc	0.99166846
11	0x3f80cb75	1.006209
12	0x3f7ee3f9	0.9956661
13	0x3f7d84b4	0.99030614
14	0x3f7db9e3	0.99111766
15	0x3f7c56ca	0.9856993
16	0x3f7d2717	0.9888777
17	0x3f7d22ef	0.9888143
18	0x3f80198e	1.0007799
19	0x3f7fbcf4	0.99897695
20	0x3f8001b1	1.0000516
21	0x3f7f6574	0.9976418
22	0x3f80b3ba	1.0054848
23	0x3f807ab3	1.0037445
24	0x3f7fa6ab	0.9986369
25	0x3f7dfaf6	0.9921106
26	0x3f7ff7a7	0.9998726
27	0x3f806bc4	1.0032887
28	0x3f80eb01	1.0071718
29	0x3f7f9b0b	0.9984595
30	0x3f7f16bd	0.9964407
31	0x3f7f94e3	0.9983656
32	0x3f806330	1.003027
33	0x3f7f4d01	0.99726874
34	0x3f7de0dc	0.99171233
35	0x3f7e9fb6	0.9946245
36	0x3f7f1331	0.9963866
37	0x3f7e7903	0.994034
38	0x3f81e89c	1.0149112
39	0x3f818a32	1.0120299
40	0x3f8083e9	1.0040256
41	0x3f7b9ad2	0.9828311
42	0x3f8093c8	1.0045099
43	0x3f7efa51	0.996007
44	0x3f805cac	1.0028281
45	0x3f7dacae	0.99091613
46	0x3f81b776	1.0134113
47	0x3f7ef710	0.9959574
48	0x3f80e03a	1.0068429
49	0x3f818217	1.0117825
50	0x3f8043bf	1.0020674
51	0x3f7ee21f	0.99563783
52	0x3f810193	1.0078605
53	0x3f80865d	1.0041004
54	0x3f7e5946	0.9935497
55	0x3f7fbf27	0.9990105
56	0x3f80c12a	1.0058949
57	0x3f7dad9d	0.9909304
58	0x3f7f3895	0.9969571
59	0x3f7fe305	0.9995578
60	0x3f7e6297	0.99369186
61	0x3f80c2e4	1.0059476
62	0x3f81446e	1.0099008
63	0x3f8136b4	1.0094819
64	0x3f824497	1.0177182
65	0x3f7eea61	0.99576384
66	0x3f7f90fc	0.99830604
67	0x3f80d395	1.006457
68	0x3f80b6b4	1.0055757
69	0x3f807799	1.0036498
70	0x3f801487	1.0006264
71	0x3f7e9798	0.99450064
72	0x3f7a7f44	0.9785044
73	0x3f7dac41	0.99090964
74	0x3f80311d	1.0014988
75	0x3f7ddc4d	0.9916428
76	0x3f7f42d6	0.9971136
77	0x3f7cbf1a	0.987291
78	0x3f7b4d7d	0.9816511
79	0x3f7f32e5	0.99687034
80	0x3f7ec417	0.9951796
81	0x3f81ba06	1.0134895
82	0x3f803ac9	1.001794
83	0x3f7cc332	0.98735344
84	0x3f80a350	1.0049839
85	0x3f7e0ad9	0.992353
86	0x3f807aed	1.0037514
87	0x3f7d3667	0.98911136
88	0x3f81f3b7	1.0152501
89	0x3f7db8e4	0.99110246
90	0x3f7e7315	0.9939435
91	0x3f8003be	1.0001142
92	0x3f7fe1ca	0.999539
93	0x3f7fbb3d	0.9989508
94	0x3f80dbcb	1.0067075
95	0x3f81ce19	1.0141021
96	0x3f80cdba	1.0062783
97	0x3f7f82e4	0.998091
98	0x3f8040c7	1.0019768
99	0x3f820857	1.0158795
100	0x3f80311f	1.001499
101	0x3f7edf24	0.99559236
102	0x3f827054	1.019053
103	0x3f7ff8bb	0.9998891
104	0x3f7eb2fe	0.9949187
105	0x3f7ebbd0	0.9950533
106	0x3f7ea2e9	0.9946733
107	0x3f810d84	1.008225
108	0x3f7f9cfa	0.998489
109	0x3f7e2814	0.99279904
110	0x3f7bc67b	0.9834973
111	0x3f7eb0f4	0.9948876
112	0x3f7dfcb6	0.9921373
113	0x3f803c13	1.0018333
114	0x3f80e7a7	1.0070695
115	0x3f803310	1.0015583
116	0x3f807ea0	1.0038643
117	0x3f7e73be	0.9939536
118	0x3f80abfa	1.0052483
119	0x3f817563	1.0113949
120	0x3f7d2eda	0.98899615
121	0x3f80c017	1.0058621
122	0x3f7d25ec	0.9888599
123	0x3f7eeb16	0.9957746
124	0x3f8146a3	1.0099682
125	0x3f80b34a	1.0054715
126	0x3f80ae5e	1.0053213
127	0x3f7f4831	0.9971953
128	0x3f7cde0b	0.9877631
129	0x3f7d925e	0.99051464
130	0x3f7c46d1	0.9854556
131	0x3f7fd59a	0.99935305
132	0x3f7fa996	0.9986814
133	0x3f81eaf0	1.0149822
134	0x3f7e4a3a	0.9933201
135	0x3f7f42b7	0.99711174
136	0x3f7ee9a9	0.9957529
137	0x3f7fe626	0.99960554
138	0x3f806f22	1.0033915
139	0x3f8082ba	1.0039895
140	0x3f8159ee	1.0105569
141	0x3f8187a7	1.0119523
142	0x3f81a7ba	1.0129311
143	0x3f7d73c2	0.9900476
144	0x3f80059d	1.0001713
145	0x3f81dd9c	1.0145755
146	0x3f822c34	1.016974
147	0x3f80aad2	1.005213
148	0x3f813c47	1.009652
149	0x3f7ed54e	0.9954423
150	0x3f7e6db0	0.9938612
151	0x3f7da65d	0.99081975
152	0x3f7fcccd	0.99921876
153	0x3f7f01e7	0.9961228
154	0x3f81d7d4	1.014399
155	0x3f7edd4e	0.99556434
156	0x3f7e87dd	0.9942606
157	0x3f81682b	1.0109915
158	0x3f80527c	1.0025172
159	0x3f7ce523	0.98787135
160	0x3f7ef16f	0.9958715
161	0x3f802f5a	1.001445
162	0x3f7b74f6	0.98225343
163	0x3f803e00	1.0018921
164	0x3f807efb	1.0038751
165	0x3f808a96	1.0042293
166	0x3f7eadc4	0.99483895
167	0x3f7fde01	0.99948126
168	0x3f7f74f4	0.9978783
169	0x3f7f39a7	0.99697345
170	0x3f7fc00d	0.9990242
171	0x3f800b6e	1.0003488
172	0x3f7db299	0.99100643
173	0x3f7f10ab	0.9963481
174	0x3f81e1c2	1.0147021
175	0x3f7ea7ae	0.9947461
176	0x3f80ce03	1.006287
177	0x3f805115	1.0024744
178	0x3f7ef60e	0.995942
179	0x3f7f0040	0.99609756
180	0x3f80a4ad	1.0050255
181	0x3f817140	1.0112686
182	0x3f7e86c1	0.9942437
183	0x3f804aab	1.0022787
184	0x3f7c7846	0.9862102
185	0x3f80d7cc	1.0065856
186	0x3f82729e	1.0191228
187	0x3f806e04	1.0033574
188	0x3f7f0d38	0.99629545
189	0x3f8096db	1.0046037
190	0x3f81f0fc	1.0151668
191	0x3f80d4f6	1.006499
192	0x3f7cd9d8	0.98769903
193	0x3f7fd642	0.99936306
194	0x3f7f14f6	0.9964136
195	0x3f805789	1.0026714
196	0x3f812a47	1.0091027
197	0x3f803841	1.0017167
198	0x3f80feb3	1.0077728
199	0x3f7ec9c5	0.99526626
200	0x3f7f7bd1	0.99798304
201	0x3f7d7124	0.99000764
202	0x3f80b90b	1.0056471
203	0x3f8074a2	1.0035594
204	0x3f80cb7c	1.0062099
205	0x3f7f9c07	0.99847454
206	0x3f7f927b	0.99832886
207	0x3f814178	1.0098104
208	0x3f7b4b44	0.9816172
209	0x3f7e1b91	0.99260813
210	0x3f7f6029	0.99756104
211	0x3f80a45a	1.0050156
212	0x3f8092b9	1.0044776
213	0x3f801e52	1.0009253
214	0x3f811d5a	1.0087082
215	0x3f7cf67b	0.988136
216	0x3f7fd143	0.99928683
217	0x3f7f87be	0.998165
218	0x3f80bbba	1.005729
219	0x3f7e7432	0.9939605
220	0x3f7db798	0.99108267
221	0x3f80c621	1.0060464
222	0x3f8050fa	1.0024712
223	0x3f80de95	1.0067927
224	0x3f7f09b6	0.9962419
225	0x3f809537	1.0045537
226	0x3f7f3962	0.99696934
227	0x3f816100	1.0107727
228	0x3f815f06	1.0107124
229	0x3f7f18e0	0.9964733
230	0x3f7fcd57	0.999227
231	0x3f7f48ad	0.9972027
232	0x3f80c516	1.0060146
233	0x3f80e7b3	1.0070709
234	0x3f7d581e	0.9896258
235	0x3f7e4a09	0.9933172
236	0x3f801ce9	1.0008823
237	0x3f7fbc4a	0.9989668
238	0x3f808efd	1.0043637
239	0x3f814bb3	1.0101227
240	0x3f7bf4a2	0.98420155
241	0x3f80582d	1.0026909
242	0x3f818628	1.0119066
243	0x3f7ffd6b	0.9999606
244	0x3f7f7414	0.99786496
245	0x3f7f7b55	0.99797565
246	0x3f7f99d5	0.99844104
247	0x3f80a53e	1.0050428
248	0x3f823f92	1.017565
249	0x3f7bfbd0	0.9843111
250	0x3f7d19cc	0.9886749
251	0x3f81c2aa	1.0137532
252	0x3f7f6818	0.9976821
253	0x3f802c47	1.0013512
254	0x3f8020ab	1.000997
255	0x3f80fde2	1.0077479

model.1.bias f4 [256]
0	0x3c11a838	0.008890204
1	0x3b854a31	0.004067682
2	0xbb419094	-0.0029535638
3	0x3bbce23b	0.0057642735
4	0x3c29d74e	0.010366274
5	0x39ac4f22	0.00032865355
6	0xba90916f	-0.0011029671
7	0xbc3403de	-0.01098725
8	0xbc00784e	-0.007841183
9	0xbc00ae66	-0.00785408
10	0x3bd56c88	0.006513182
11	0x3a76d423	0.0009415766
12	0x3bc27950	0.0059348717
13	0xbaf2bcb3	-0.0018519372
14	0xbbfe15a8	-0.0077540465
15	0x3b96aea6	0.0045984564
16	0xbb3f3196	-0.0029173843
17	0xbba4b4da	-0.005026442
18	0x3995fbd9	0.00028607136
19	0xbb92fd30	-0.0044857487
20	0xbbc3214c	-0.005954897
21	0xba513102	-0.000798002
22	0xbab01295	-0.0013433272
23	0x3bea29eb	0.0071461103
24	0xbb00e181	-0.001966566
25	0xbb4cad72	-0.003123131
26	0xbb8bf6d1	-0.004271366
27	0x3c80ccaa	0.015722591
28	0x3a8e3c2f	0.0010851676
29	0x3c4104f8	0.01178097
30	0xbc2edb46	-0.010672396
31	0xbb946b0b	-0.004529362
32	0x3b8a58a6	0.0042219935
33	0x3b8c8d4b	0.0042893044
34	0xbbfc5546	-0.007700595
35	0xbbf16edc	-0.007367952
36	0x3bd2bf4a	0.006431495
37	0xbb923810	-0.0044622496
38	0x3c0f907a	0.008762473
39	0x3c076ade	0.008265225
40	0x3a701959	0.00091590505
41	0xbcc5df82	-0.024154428
42	0x3c0840a1	0.00831619
43	0x3bf97576	0.0076128794
44	0x3a486289	0.00076440774
45	0x3c0236c0	0.007947624
46	0x3c46cfa7	0.012134469
47	0x3b1d38a3	0.0023990057
48	0xba424f32	-0.0007412314
49	0x3c2e29c3	0.010630074
50	0x3c84adc9	0.016196148
51	0xbbb5ca5c	-0.0055478048
52	0x3bf65c75	0.007518346
53	0x3c05e9f0	0.008173451
54	0xbb464d64	-0.003025853
55	0xbc61cd36	-0.013781836
56	0x3b3506b1	0.0027622397
57	0xbb5063e9	-0.0031797832
58	0xbb1deb15	-0.0024096419
59	0xbabe226a	-0.0014506106
60	0xbb8a1c99	-0.004214835
61	0x3b8eeb03	0.0043615117
62	0x3a10eb20	0.00055282004
63	0x3c09dd52	0.008414583
64	0x3c7bed82	0.0153764505
65	0x3a55d2a5	0.00081566937
66	0xbb9b236f	-0.0047344486
67	0x3c065a8b	0.008200298
68	0x3c7cbef2	0.015426384
69	0x3bd92586	0.0066267876
70	0xbb6caab0	-0.003611248
71	0xbb967342	-0.0045913765
72	0xbc21a7da	-0.009866679
73	0x3be0562e	0.006846211
74	0xbb4b8623	-0.0031055294
75	0xbc5f278a	-0.013620267
76	0x3b96968d	0.004595584
77	0xbc480dcb	-0.01221032
78	0xbc772c00	-0.015086174
79	0x3bc2f91b	0.005950106
80	0x39c149db	0.00036866855
81	0x3c0a0888	0.008424886
82	0x3be776e4	0.0070637334
83	0xbc8ba4b5	-0.017046312
84	0x3c68e600	0.0142149925
85	0xbc0b539f	-0.008503824
86	0xbae3d6c0	-0.0017382726
87	0xbb208127	-0.0024491043
88	0x3c75efb9	0.015010768
89	0xbc1eddd3	-0.009696442
90	0xbb3e693b	-0.0029054421
91	0x3c15f8dd	0.009153572
92	0xbb7a45b5	-0.0038188521
93	0x3bb2b4e8	0.0054536946
94	0x3b912fe6	0.0044307588
95	0x3c9e2c25	0.01930816
96	0x3bf6e4d0	0.007534601
97	0x3b9da9b9	0.0048114923
98	0xbb9e1f2f	-0.0048254947
99	0x3c742e47	0.0149036115
100	0x3c72c4a2	0.014817389
101	0xbbc3ff39	-0.0059813526
102	0x3cb05229	0.021523552
103	0x3bdc145a	0.0067162933
104	0xbc00e25f	-0.007866471
105	0xbc369335	-0.011143495
106	0xbbefde48	-0.007320199
107	0x3ada1c8e	0.001664059
108	0xbb0a8b70	-0.002114024
109	0xbb13598a	-0.002248379
110	0xbcaae8ef	-0.020863025
111	0xba80cbf8	-0.0009826412
112	0x3abeb85c	0.0014550793
113	0x3bbe417e	0.005806147
114	0x3c309bd1	0.010779337
115	0x3b072ba9	0.0020625389
116	0xbab54987	-0.0013831117
117	0xbc27dd3b	-0.010245617
118	0x3c1f4ef4	0.009723414
119	0x3c2b28a1	0.010446698
120	0x3beee828	0.007290859
121	0x3c9b1d32	0.01893482
122	0xbc112d9d	-0.008860973
123	0xba95321e	-0.0011382734
124	0x3c3439af	0.011000081
125	0x3b14c677	0.0022701302
126	0x3c0a1d9e	0.008429913
127	0xba321f12	-0.0006794791
128	0xbbd5f4ce	-0.006529427
129	0x3b3af367	0.0028526427
130	0xbc5e7af2	-0.013579117
131	0x3bf6b305	0.007528665
132	0x3ad299da	0.001606758
133	0x3c6ed25c	0.014576521
134	0x3bc63685	0.0060489797
135	0xbb9f6687	-0.004864517
136	0x3b6052cc	0.0034229038
137	0x3b95c593	0.004570672
138	0x3c22f7e1	0.009946794
139	0xbaa688b2	-0.0012705533
140	0x3c325799	0.010885143
141	0x3b863cdd	0.004096611
142	0x3c9b5e45	0.01896585
143	0xbbebb42f	-0.0071931104
144	0x3af8ac40	0.0018972233
145	0x3bf6664b	0.0075195185
146	0x3ca89a04	0.020581253
147	0x3c27322b	0.010204832
148	0x3a6e5b0b	0.0009092546
149	0xb7fc0176	-3.0041421e-05
150	0xbbcf068c	-0.006317919
151	0xbc6d9927	-0.014501846
152	0x3bbff88e	0.0058584874
153	0x39960084	0.00028610614
154	0x3c5a2f9c	0.013317015
155	0xbbe97d0f	-0.007125504
156	0xbc06356d	-0.008191449
157	0x3c1b5b4a	0.009482214
158	0x3c29b65e	0.010358421
159	0x3a9ce62b	0.0011970451
160	0xbaa2d826	-0.0012424036
161	0xbc2412a8	-0.010014214
162	0xbc57bbdb	-0.013167347
163	0x3badc474	0.00530296
164	0x3c0f0799	0.008729839
165	0xbae9fe17	-0.0017852214
166	0x3c0656e0	0.008199424
167	0xbc03920d	-0.008030427
168	0xbb1fe342	-0.002439693
169	0xb997338a	-0.00028839364
170	0x3c000220	0.007813007
171	0x3af2ef64	0.0018534479
172	0x39f3604c	0.00046420319
173	0xbb7f68f1	-0.0038972462
174	0x3c91b46b	0.017786225
175	0xb937ddd0	-0.00017534872
176	0x3c0f1707	0.0087335175
177	0x3bcfdf82	0.006343783
178	0xbbb0db1d	-0.005397214
179	0xbb4457c7	-0.0029959546
180	0xbaf22104	-0.0018472974
181	0x3c46ef3a	0.012141997
182	0x3a8ceb99	0.0010751366
183	0x3bddd13e	0.0067693284
184	0xbc903988	-0.017605558
185	0x3b87a2c6	0.004139277
186	0x3ca59285	0.020211468
187	0x3b166d43	0.0022953309
188	0xba64c563	-0.00087269227
189	0x3b87183c	0.004122762
190	0x3bfe65b0	0.007763587
191	0x3b7a158a	0.003815981
192	0xbc8c6f0f	-0.0171428
193	0x3ab7eb91	0.0014031996
194	0x3be1ba68	0.0068886764
195	0x3c342cfe	0.010997055
196	0x3c5c8df2	0.013461577
197	0x3b9973cb	0.004682993
198	0x3c504b7f	0.012713312
199	0xbb9b98d7	-0.0047484445
200	0xbb2ac2f0	-0.0026056133
201	0xbba82e5c	-0.0051324796
202	0x3c3574a1	0.01107517
203	0x3bde254f	0.00677935
204	0xbb1ec8c3	-0.002422855
205	0x3ab42cb5	0.0013746234
206	0x3baf948a	0.0053582834
207	0x3c2f1586	0.010686284
208	0xbbf13ca7	-0.0073619667
209	0x3b73d590	0.003720615
210	0xbc02c250	-0.007980898
211	0xbc31cdbd	-0.0108522745
212	0x3ab641c4	0.0013905098
213	0x3bb89db2	0.005634033
214	0x3b618dce	0.0034416798
215	0xbc3e13a9	-0.011601367
216	0xbbdc3a9a	-0.006720853
217	0xbbbdccbc	-0.0057922285
218	0x3bdc5a97	0.0067246663
219	0x3aa2377b	0.0012376154
220	0xbc2c33a3	-0.010510358
221	0x3be10893	0.006867477
222	0x3c50300b	0.012706767
223	0x3c0e8845	0.008699481
224	0xbbe6174c	-0.00702182
225	0x3b9e701b	0.0048351414
226	0xbc47f452	-0.012204247
227	0x3c828752	0.015933666
228	0x3c1ef704	0.009702448
229	0x3c32b2e1	0.010906906
230	0xbb91b418	-0.0044465177
231	0x3ab4a2af	0.0013781394
232	0x3c517e2d	0.01278643
233	0x3c1ce8f0	0.009577021
234	0xbc5b6731	-0.013391302
235	0xbafce6e7	-0.0019294888
236	0x3bc2e66e	0.0059478795
237	0x3c02f664	0.007993314
238	0x3bd6dc53	0.0065570264
239	0x3c47d88c	0.012197625
240	0xbc5f23e7	-0.0136194
241	0xbb55428d	-0.0032540888
242	0x3bdd8840	0.006760627
243	0xbbff67e7	-0.0077943685
244	0x3c10de31	0.008842037
245	0xba3a586f	-0.00071085145
246	0xbb75de80	-0.0037516654
247	0xbaf22a32	-0.001847571
248	0x3bf80e04	0.00757003
249	0xbc9e9366	-0.019357394
250	0xbb4cb201	-0.0031234028
251	0x3bbd28c0	0.00577268
252	0xbc5907d6	-0.013246497
253	0xbb72631d	-0.0036985346
254	0xbb2de5d1	-0.0026534686
255	0x3b9c3807	0.004767421

model.1.running_mean f4 [256]
0	0xbe39ffb1	-0.18163945
1	0xbedf61ca	-0.43629295
2	0x3eb1ceba	0.34728032
3	0xbe9380c6	-0.28809184
4	0xbee5cf86	-0.4488489
5	0xbda37aeb	-0.07982429
6	0x3e523ff4	0.20532209
7	0x3eaa28b3	0.33234176
8	0x3cdde6c4	0.027087577
9	0xbdb1f43b	-0.086891614
10	0xbe595b4b	-0.21226232
11	0x3e1b76f3	0.15182094
12	0xbec90317	-0.3926017
13	0xbd5d9561	-0.054097537
14	0xbecc4bba	-0.39901525
15	0x3e77a602	0.2418442
16	0x3d5b8158	0.05359015
17	0x3ec42a0d	0.38313332
18	0x3f03bc5e	0.514593
19	0xbe79d5b8	-0.24397933
20	0xbe2b41e5	-0.16724356
21	0x3e228138	0.15869606
22	0xbe9d6d7c	-0.30747592
23	0xbf020356	-0.5078634
24	0xbd9d81a8	-0.076907456
25	0x3edd6da8	0.43247724
26	0x3e170a4c	0.14750022
27	0xbd95d5ff	-0.07316207
28	0xbeca5a04	-0.395218
29	0x3efd0a35	0.4942185
30	0x3da150b4	0.07876721
31	0x3e8dd1c3	0.27699098
32	0x3f18fa3f	0.59756845
33	0xbe9a341d	-0.30117884
34	0x3ee7507d	0.45178595
35	0xbee2f773	-0.44329414
36	0xbe8dc53b	-0.27689537
37	0xbedf4b2e	-0.43612045
38	0xbdd9656a	-0.10615046
39	0x3e8ed619	0.2789772
40	0xbee4505e	-0.44592565
41	0xbe879434	-0.26480258
42	0x3ec03ddd	0.37547198
43	0xbe26928c	-0.1626684
44	0xbe9cb87b	-0.30609497
45	0xbac21920	-0.0014808513
46	0xbef61118	-0.48059916
47	0xbe438184	-0.19092375
48	0xbdb1a9bc	-0.086749524
49	0xbef98144	-0.48731434
50	0xbdf12357	-0.11774319
51	0x3e9e80c7	0.30957624
52	0xbf0a5efe	-0.54051197
53	0x3f001ec4	0.50046945
54	0xbe94cced	-0.29062596
55	0x3ec70bf9	0.38876322
56	0x3e8d9d6a	0.2765916
57	0x3e68597c	0.22690386
58	0x3e68d0ef	0.22735952
59	0xbee024ce	-0.4377808
60	0xbea55123	-0.32288465
61	0x3f03a638	0.51425505
62	0xbecba92e	-0.3977751
63	0x3e704145	0.23462398
64	0xbf06c8ce	-0.52650154
65	0xbf0ee244	-0.55814004
66	0x3f0bcb41	0.54607016
67	0x3ed8ca5d	0.4234189
68	0xbe20382f	-0.15646432
69	0xbef8cc47	-0.4859335
70	0xbea3717a	-0.31922513
71	0xbf028a34	-0.5099213
72	0xbf16600e	-0.5874032
73	0xbebb6efb	-0.3660811
74	0xbe2866d2	-0.16445473
75	0x3c18b760	0.009321064
76	0x3c992217	0.018693013
77	0xbe9f174e	-0.31072468
78	0x3e9e40d4	0.30908835
79	0x3eb9ff25	0.36327472
80	0xbc180857	-0.009279332
81	0xbe1c9c56	-0.15294012
82	0x3e1f33bc	0.15547079
83	0xbea2b3a9	-0.31777695
84	0x3ecab084	0.39587796
85	0xbe6a8414	-0.22901946
86	0x3c2ef22a	0.010677854
87	0xbe6da522	-0.23207524
88	0xbdf20da8	-0.11819011
89	0xbeff08d7	-0.49811432
90	0x3e47ad5e	0.19499728
91	0x3f0a1951	0.5394488
92	0xbe50d2ac	-0.20392865
93	0xbce28640	-0.027651906
94	0x3da4d535	0.080484785
95	0x3df05574	0.11735049
96	0xbe57ddd5	-0.21080716
97	0xbe8da053	-0.2766138
98	0x3df64463	0.120247625
99	0xbeff315c	-0.49842346
100	0x3f07743e	0.52911747
101	0x3e02d574	0.12776738
102	0xbe9737ce	-0.29534763
103	0xbedf6350	-0.43630457
104	0xbea31229	-0.31849793
105	0xbe29e0e9	-0.16589703
106	0xbf0966d4	-0.5367253
107	0x3ecd701d	0.40124598
108	0xbe547a3f	-0.20749758
109	0x3e84a51a	0.25907212
110	0xbdbf4105	-0.09338573
111	0xbe086d25	-0.13322885
112	0x3f0e7f19	0.55662686
113	0xbecdc728	-0.40191007
114	0xbeee6d1d	-0.46567622
115	0x3ea1ac1b	0.3157662
116	0xbe4b5663	-0.19857173
117	0x3e5d7899	0.21628036
118	0x3ebde9e1	0.37092498
119	0x3ecfe1cb	0.40601954
120	0xbf05a1bc	-0.5219991
121	0xbb3d2914	-0.0028863596
122	0x3f052ea3	0.52024287
123	0x3e666a3e	0.22501466
124	0xbe924324	-0.2856685
125	0x3e60c732	0.21950987
126	0x3eb1012c	0.34571207
127	0x3dba9146	0.0910974
128	0x3df469ce	0.11934243
129	0xbf18219d	-0.5942629
130	0xbf0c8995	-0.54897434
131	0xbf0f390b	-0.55946416
132	0xbeab79da	-0.33491403
133	0x3ed640a9	0.41846207
134	0x3ed1d85a	0.40985376
135	0xbe2260d9	-0.15857257
136	0x3d5ec473	0.054386567
137	0xbebd8608	-0.3701632
138	0xbe908759	-0.28228262
139	0xbccb94c0	-0.024851203
140	0x3ed06c60	0.40707684
141	0x3e258f19	0.16167869
142	0x3ef1f72e	0.47258896
143	0x3efd19ce	0.4943375
144	0xbe82347f	-0.25430676
145	0x3edc77a3	0.43060026
146	0xbf05c802	-0.5225831
147	0xbcfb20ee	-0.03065535
148	0x3cd38549	0.025820391
149	0xbdec8ead	-0.11550651
150	0x3e92aedb	0.2864903
151	0x3d7b7820	0.061393857
152	0xbd6a8ee1	-0.057265166
153	0xbe3d4a79	-0.1848544
154	0xbe8279b3	-0.25483474
155	0x3e360ba6	0.17777881
156	0xbecd5809	-0.40106228
157	0x3d1d8e1f	0.038465615
158	0xbccdaa7d	-0.02510571
159	0xbec0fb11	-0.37691548
160	0xbe831d47	-0.25608274
161	0xbe0e025a	-0.13868085
162	0xbeab7416	-0.33487004
163	0xbedf35b6	-0.43595666
164	0xbe991248	-0.2989676
165	0x3f0542b2	0.52054894
166	0xbf16a920	-0.58851814
167	0xbecce45f	-0.40017983
168	0xbef88ec1	-0.48546413
169	0xbefb7520	-0.49112797
170	0xbd904b47	-0.07045608
171	0xbe88e91e	-0.26740354
172	0xbebb24fe	-0.3655166
173	0xbee3d14a	-0.44495612
174	0xbe32ff3d	-0.17480178
175	0x3e084e4e	0.13311121
176	0xbd4cc860	-0.04999578
177	0x3e80e8ef	0.25177714
178	0xbe76daa6	-0.24106845
179	0xbef85223	-0.48500165
180	0x3e0cca07	0.13748942
181	0xbe7a6a80	-0.24454689
182	0xbdace98e	-0.084429845
183	0x3d502651	0.05081779
184	0x3ee12e27	0.43980524
185	0x3e1582c2	0.14600661
186	0x3e9b9625	0.3038799
187	0xbdeb9b1e	-0.11504196
188	0x3cd3b376	0.02584241
189	0xbeb11dbf	-0.34593007
190	0x3e146b9d	0.14494176
191	0x3ef82837	0.48468181
192	0x3f0ce05b	0.5502984
193	0xbe93e8ab	-0.2888845
194	0x3e21e49e	0.15809867
195	0xbea20d3e	-0.31650728
196	0xbd0c2ddf	-0.034223434
197	0x3e967e0b	0.29393038
198	0xbda97d0e	-0.082758054
199	0x3ed94928	0.42438626
200	0xbf051494	-0.51984525
201	0xbdeefb13	-0.11668982
202	0x3e946a91	0.28987554
203	0x3df387ba	0.11891122
204	0x3e72b4fd	0.23701854
205	0xbec30282	-0.3808785
206	0xbf1160c8	-0.567883
207	0xbd3a717e	-0.04551839
208	0x3ed1596c	0.40888536
209	0xbf0c6955	-0.54848224
210	0xbecd5d71	-0.40110353
211	0xbf061818	-0.52380514
212	0x3dbde9ee	0.09273134
213	0x3eb497f5	0.35272184
214	0xbe5924cf	-0.21205448
215	0x3e476a39	0.19474114
216	0x3f03a113	0.51417655
217	0x3ec06d1a	0.37583238
218	0x3efc7068	0.4930451
219	0x3ebc0de7	0.36729357
220	0xbef0e7c1	-0.47051814
221	0xbf0ab689	-0.54184777
222	0xbe414d5e	-0.1887717
223	0xbe7eb9cf	-0.24875568
224	0xbdf168e2	-0.11787583
225	0x3d606cd1	0.054791275
226	0xbe2afdce	-0.16698381
227	0xbf107902	-0.56434643
228	0x3d9b7f56	0.07592647
229	0x3ef4eafb	0.47835526
230	0xbe42712c	-0.18988484
231	0xbe383bc4	-0.17991549
232	0x3bd44e49	0.006479059
233	0x3ee4c445	0.44680992
234	0xbe3b2d3d	-0.18278976
235	0xbeb44616	-0.3520972
236	0x3f10f636	0.5662569
237	0xbee37870	-0.44427824
238	0x3eff3f53	0.49853
239	0x3ed01296	0.4063918
240	0x3f1884ba	0.59577525
241	0x3ec5c2f5	0.38625303
242	0x3d7e7adb	0.062128883
243	0x3ec25bf0	0.37960768
244	0xbf083f4a	-0.5322157
245	0xbf0aded5	-0.54246265
246	0xbc208808	-0.009798057
247	0xbdf663da	-0.12030764
248	0xbf04a144	-0.5180857
249	0xbee6a925	-0.45050922
250	0x3e0f37b3	0.13986091
251	0xbf0cd799	-0.55016476
252	0x3e5168de	0.2045016
253	0xbe7636a5	-0.24044283
254	0x3ca1350b	0.019678613
255	0xbd571263	-0.05250777

model.1.running_var f4 [256]
0	0x3e719ba2	0.23594525
1	0x3e37a5a4	0.1793428
2	0x3e9560b6	0.29175347
3	0x3e9f2ff7	0.31091282
4	0x3ee8eb91	0.45492223
5	0x3e5df9f4	0.21677381
6	0x3ec36003	0.3815919
7	0x3e330f7b	0.17486374
8	0x3e89be20	0.26902866
9	0x3e199d12	0.15001324
10	0x3e0dae19	0.13835944
11	0x3e94bc92	0.29050118
12	0x3e6d43f9	0.23170461
13	0x3f1174f8	0.56819105
14	0x3d7774e3	0.060414206
15	0x3e346007	0.17614757
16	0x3f72911b	0.94752663
17	0x3e0d1f4f	0.13781475
18	0x3f042605	0.51620513
19	0x3ebcd973	0.3688465
20	0x3ec7bfb8	0.39013457
21	0x3f088dcb	0.5334136
22	0x3dd741b3	0.10510578
23	0x3ee17152	0.4403177
24	0x3ea18118	0.31543803
25	0x3f00877c	0.5020673
26	0x3e6faa29	0.23404755
27	0x3f2508be	0.64466465
28	0x3e72f8f8	0.23727787
29	0x3d718671	0.058966104
30	0x3ed50001	0.41601565
31	0x3e530d5d	0.20610566
32	0x3ea480d8	0.3212955
33	0x3e643f74	0.2228983
34	0x3ec89d0d	0.3918232
35	0x3eb6b179	0.35682276
36	0x3f0df007	0.5544438
37	0x3ec5af63	0.38610372
38	0x3ecb99ed	0.39765874
39	0x3ed3a30a	0.41335326
40	0x3e41f223	0.18940024
41	0x3ed5f1f8	0.4178617
42	0x3d1c3e05	0.038145084
43	0x3e0d3375	0.1378916
44	0x3f2a6653	0.66562384
45	0x3ec38d05	0.38193527
46	0x3e17a32d	0.1480834
47	0x3ed89440	0.42300606
48	0x3db6db8c	0.08928594
49	0x3e334ecb	0.17510526
50	0x3e50f190	0.20404649
51	0x3d9b8ab7	0.07594817
52	0x3e26e9db	0.16300146
53	0x3c8bc259	0.017060446
54	0x3e43b21c	0.19110912
55	0x3e02fd07	0.12791835
56	0x3f10730d	0.56425554
57	0x3ead16a7	0.33806345
58	0x3eab0386	0.33401126
59	0x3ed8235f	0.42214486
60	0x3edd8bc4	0.43270695
61	0x3da23d73	0.07921877
62	0x3e88b4fa	0.26700574
63	0x3e84c694	0.25932753
64	0x3ea38e89	0.31944683
65	0x3f36fecf	0.7148256
66	0x3dce4ee4	0.10073641
67	0x3ecae956	0.39631146
68	0x3d690402	0.056888588
69	0x3eb86f01	0.3602219
70	0x3cbf21ae	0.02333149
71	0x3ee901eb	0.45509276
72	0x3ee29898	0.44257045
73	0x3ef9eae9	0.48812035
74	0x3dac4431	0.08411444
75	0x3d87a072	0.066223994
76	0x3e69b185	0.22821625
77	0x3ec9bc28	0.39401364
78	0x3e2abe00	0.16674042
79	0x3e8d2b4f	0.27572104
80	0x3ea323ab	0.3186315
81	0x3e9ba19a	0.3039673
82	0x3f19109e	0.5979098
83	0x3d48e139	0.049042914
84	0x3acd8c4f	0.0015682074
85	0x3e44cb7e	0.19218251
86	0x3e828c62	0.2549773
87	0x3f02d819	0.5111099
88	0x3e5c08d8	0.21487749
89	0x3e87d95f	0.26533028
90	0x3ee11df7	0.43968174
91	0x3edc3477	0.43008777
92	0x3efdb9ea	0.49555904
93	0x3f231c1d	0.6371477
94	0x3eb4f0dd	0.35340014
95	0x3efc3d90	0.49265718
96	0x3eec6e9b	0.46178135
97	0x3e23cbd4	0.15995723
98	0x3e1b9628	0.15193999
99	0x3e95eb2d	0.29280987
100	0x3ec36a9f	0.38167283
101	0x3f490605	0.7852481
102	0x3de9e993	0.11421504
103	0x3d54bc47	0.051937368
104	0x3e992d5d	0.29917422
105	0x3f20211e	0.6255053
106	0x3eebeae0	0.46077633
107	0x3d9de51a	0.07709713
108	0x3edc9d07	0.43088552
109	0x3e662a7e	0.22477147
110	0x3e175645	0.14779003
111	0x3eb0bf10	0.3452077
112	0x3cf79d2d	0.030226314
113	0x3e9b6ddc	0.30357254
114	0x3ea78f02	0.32726294
115	0x3e9dc080	0.30810928
116	0x3e7e957b	0.2486171
117	0x3e0ab78e	0.13546583
118	0x3d5a78e2	0.05333794
119	0x3e1e9db3	0.15489845
120	0x3e41b52e	0.18916771
121	0x3f124819	0.5714126
122	0x3e6844e3	0.22682528
123	0x3e800ddb	0.2501057
124	0x3f449ed7	0.7680487
125	0x3e2541bd	0.16138358
126	0x3ee95cc0	0.45578575
127	0x3e1b0266	0.15137634
128	0x3e1c09cc	0.15238112
129	0x3f2f288d	0.6842125
130	0x3cac693c	0.021046273
131	0x3ee6bd3d	0.45066252
132	0x3eb113b9	0.3458536
133	0x3f1cf146	0.61305654
134	0x3e4805e4	0.19533497
135	0x3ec6a76c	0.38799608
136	0x3e9146c1	0.28374293
137	0x3ed2d104	0.4117509
138	0x3ed7c975	0.42145887
139	0x3e553141	0.2081957
140	0x3ef8477c	0.48492038
141	0x3eb4c4ae	0.35306305
142	0x3e871654	0.26384223
143	0x3e945102	0.28968054
144	0x3edfff27	0.43749353
145	0x3f1522a2	0.5825597
146	0x3e79f1c8	0.24408638
147	0x3de81f9d	0.11334155
148	0x3e939ca9	0.2883046
149	0x3ee24a85	0.4419748
150	0x3d3b76ce	0.045767598
151	0x3ec193d1	0.37808087
152	0x3e990f1f	0.2989435
153	0x3e674b80	0.22587395
154	0x3ef08dd3	0.46983203
155	0x3e11d58e	0.14241621
156	0x3f1cf4b8	0.6131091
157	0x3e100eb6	0.14068112
158	0x3efcf1f5	0.4940335
159	0x3dbae225	0.09125165
160	0x3d847c99	0.064690776
161	0x3ee93109	0.45545223
162	0x3ec0658f	0.37577483
163	0x3f023b8c	0.5087211
164	0x3e0923e1	0.13392593
165	0x3de0c7bf	0.109755985
166	0x3e5dd3fb	0.21662895
167	0x3d94d961	0.07268024
168	0x3e8fa3ea	0.28054744
169	0x3e0bb89e	0.13644645
170	0x3e9a88ed	0.3018259
171	0x3efe5b80	0.49679184
172	0x3ebd0b88	0.3692286
173	0x3eb943ec	0.36184633
174	0x3eff064b	0.4980949
175	0x3ec9c849	0.39410618
176	0x3f1339b5	0.5750993
177	0x3ecc2bf9	0.39877298
178	0x3e9794c2	0.2960568
179	0x3ec108d0	0.37702036
180	0x3e463557	0.19356285
181	0x3edfd4d4	0.43717062
182	0x3e247974	0.16061956
183	0x3f0baa17	0.5455641
184	0x3d0dbd63	0.03460444
185	0x3dd975a3	0.106181405
186	0x3e8bd68a	0.27312118
187	0x3ec73c51	0.38913205
188	0x3e2d0101	0.16894914
189	0x3ed2155d	0.41031924
190	0x3bb388ec	0.005478969
191	0x3e3c7cb5	0.18406947
192	0x3f19f844	0.6014445
193	0x3ec4feae	0.38475555
194	0x3e14559b	0.14485781
195	0x3e025431	0.12727429
196	0x3e285629	0.16439117
197	0x3f094972	0.53627694
198	0x3da4d00b	0.080474935
199	0x3eb5ec2c	0.35531747
200	0x3f12c25f	0.57327837
201	0x3dd5dc03	0.104423545
202	0x3ec23ea5	0.3793842
203	0x3e7b4f14	0.24541885
204	0x3f1db139	0.61598545
205	0x3ef99678	0.4874761
206	0x3e057d1b	0.13036005
207	0x3f1fc120	0.6240406
208	0x3f12f240	0.57400894
209	0x3e6fca34	0.23416978
210	0x3e7c3182	0.2462826
211	0x3f0d3fa9	0.5517526
212	0x3e849efe	0.2590255
213	0x3e88adf6	0.26695222
214	0x3dc8f5e7	0.09812527
215	0x3f0a92f9	0.5413051
216	0x3e5ba130	0.21448207
217	0x3eb960cb	0.3620666
218	0x3e8cdaa4	0.2751056
219	0x3f1904fe	0.5977324
220	0x3e545ff7	0.20739733
221	0x3ebb2f56	0.36559552
222	0x3f02382f	0.5086698
223	0x3eb2e8b1	0.34943154
224	0x3ea46022	0.32104594
225	0x3e6919ec	0.22763795
226	0x3e8a6993	0.27033672
227	0x3ee084a7	0.43851206
228	0x3ee3d42b	0.4449781
229	0x3e74fe06	0.23925027
230	0x3f4f51b1	0.80984026
231	0x3ea25d30	0.3171172
232	0x3d6baa55	0.05753549
233	0x3ec0bee4	0.37645638
234	0x3e2077c3	0.15670685
235	0x3ec4160f	0.3829808
236	0x3ec54ea7	0.3853657
237	0x3ec5f79e	0.3866548
238	0x3eeed448	0.46646333
239	0x3eb8f7f0	0.3612666
240	0x3ebac1c7	0.36475965
241	0x3ecc1391	0.39858678
242	0x3ee32fe2	0.4437247
243	0x3f1d0daf	0.61349005
244	0x3e15d959	0.14633693
245	0x3ee4e88c	0.4470867
246	0x3ec8b38e	0.3919949
247	0x3ec7d33c	0.39028347
248	0x3e999b87	0.3000147
249	0x3c4a6269	0.012352564
250	0x3e89a0b3	0.26880416
251	0x3e67ad5a	0.22624722
252	0x3e5a7ff8	0.21337879
253	0x3e30b517	0.1725658
254	0x3d172154	0.03689702
255	0x3f40c0da	0.7529427

model.4.weight f4 [128, 256]
0	0xbd5538fc	-0.052056298
1	0x3d668984	0.05628349
2	0x3cd81165	0.026375482
3	0x3ce0a629	0.027422981
4	0x3d648411	0.05579001
5	0x3d0494d0	0.03236848
6	0x3cf94db4	0.03043256
7	0xbd61ac16	-0.055095755
8	0xbccc7238	-0.024956807
9	0xbd292afa	-0.04130075
10	0x3d0412ce	0.032244496
11	0x3d78c593	0.060735296
12	0xbd4835f5	-0.048879582
13	0x3d2e215f	0.042512294
14	0xbd72f899	-0.059319112
15	0x3c8bd7cf	0.017070679
16	0x3aac4cb4	0.0013145418
17	0x3d781a1c	0.060571775
18	0x3d00dcf9	0.031460736
19	0xbd85540f	-0.065101735
20	0x3d494156	0.049134575
21	0x3d3effcb	0.046630662
22	0x3d0f7083	0.03501941
23	0xbcd6774e	-0.026179936
24	0x3b899609	0.004198794
25	0x3d3ffc5c	0.046871528
26	0xbd7b9ebf	-0.06143069
27	0xbbe2340d	-0.0069031776
28	0xbd856e1a	-0.06515141
29	0x3c479e6a	0.012183765
30	0x3d2ec90a	0.042672195
31	0x39dcaa71	0.0004208866
32	0x3a60c312	0.00085739896
33	0xbd34b138	-0.04411432
34	0x3d367a68	0.04455033
35	0xbcc2bdcd	-0.023772145
36	0x3c6e4d65	0.0145448195
37	0x3d663ecb	0.056212228
38	0xba1e226c	-0.0006032351
39	0x3921e304	0.00015438726
40	0x3b9c3e60	0.004768178
41	0x3d6d0ca5	0.057873387
42	0x3c876221	0.016526284
43	0x3cd023ba	0.02540766
44	0xbd0b5edc	-0.03402601
45	0xbb01f7fc	-0.0019831648
46	0x3cad2431	0.021135421
47	0xbcc1d3ed	-0.023660624
48	0xbcfccf04	-0.030860431
49	0x3aa1c007	0.0012340554
50	0x3cd8ab5d	0.0264489
51	0xbcc31b65	-0.023816774
52	0xbd644668	-0.055731207
53	0xbc0b6fe7	-0.008510566
54	0xbcecf841	-0.02892697
55	0xbd6f5729	-0.05843273
56	0x3c1316ad	0.008977574
57	0x3b635c26	0.0034692376
58	0x3ca56c19	0.020193147
59	0x3ccd53c6	0.02506436
60	0x3d5b43d5	0.053531487
61	0xbbf9f606	-0.007628205
62	0xbce8a9ff	-0.028401373
63	0xbce98c76	-0.02850936
64	0x3a6cd7cf	0.00090348435
65	0xbd2a5f08	-0.041594535
66	0xbcba849e	-0.022768315
67	0x3d5486c9	0.051886354
68	0xbc6d8a6b	-0.014498333
69	0x3d7ce2a3	0.061739575
70	0x3d4e1089	0.050308738
71	0x3d2ad511	0.041707102
72	0xbc81e2bf	-0.015855191
73	0xbd042c8f	-0.032269057
74	0x3b03c2ff	0.002010524
75	0xbcc7106c	-0.024299823
76	0x3d064296	0.032778345
77	0xbd83387e	-0.064072594
78	0x3d872ad9	0.065999694
79	0xbd44b7cb	-0.04802684
80	0xbd80cf9e	-0.062896
81	0x3c446ac9	0.01198835
82	0xbd41ae40	-0.04728532
83	0xbc786740	-0.0151613355
84	0x3d5aa929	0.05338398
85	0xbd7f39c3	-0.062310945
86	0xbd65737d	-0.05601834
87	0xbc856cbb	-0.016287198
88	0xbc8955fa	-0.01676463
89	0x3c42e9e2	0.011896582
90	0x3d41acd9	0.04728398
91	0x3d144563	0.036198985
92	0xbd4336df	-0.04765975
93	0xbc9cd45f	-0.019144235
94	0x3cf4fe96	0.029906552
95	0x3d60b04b	0.054855626
96	0x3d0aa5a3	0.03384937
97	0x3b1323e1	0.0022451805
98	0xbb9d6923	-0.004803793
99	0xbcb7da9e	-0.022443112
100	0x3d0e5657	0.03475031
101	0x3d64f53d	0.05589794
102	0x3d131fb5	0.03591891
103	0x3d027a23	0.03185476
104	0x3cdf4a5e	0.02725714
105	0x3d808875	0.06276027
106	0x3d2ce19e	0.042207353
107	0xbbbafbb8	-0.0057062767
108	0xbd367acb	-0.0445507
109	0x3d38e96f	0.045144495
110	0xbc910429	-0.017702179
111	0xbc894531	-0.016756626
112	0x3d285885	0.041100044
113	0xbd656779	-0.056006882
114	0x3c4e56bf	0.012593924
115	0xbd882be8	-0.066489995
116	0x3d136ea8	0.035994202
117	0x3d3bfa45	0.045892972
118	0x3d51cb3a	0.051219203
119	0xbc6a0084	-0.0142823495
120	0x3c87c018	0.01657109
121	0xbd2aee61	-0.041731242
122	0x3cbcdea3	0.02305538
123	0x3d1a15f5	0.037618596
124	0x3cab643b	0.020921817
125	0xbd1abc6f	-0.03777736
126	0x3b5647f5	0.0032696698
127	0x3d0c7869	0.03429452
128	0x3cec3b34	0.028836824
129	0x3d2e3768	0.04253331
130	0xbcc0eba4	-0.023549862
131	0x3d2ff4b1	0.042957965
132	0xbd480c45	-0.048839826
133	0xbc8b9111	-0.017036946
134	0xbd199a25	-0.03750052
135	0xbc0cc663	-0.008592221
136	0x3cf435d1	0.029810818
137	0xbcb2026b	-0.021729669
138	0xbd84f178	-0.06491369
139	0x3bb9d449	0.0056710583
140	0xbd76a814	-0.060218886
141	0xbd168dc3	-0.03675629
142	0xbd3663fb	-0.044528943
143	0xbc8b709f	-0.017021475
144	0xbd03b3bd	-0.032153834
145	0xbda30a4f	-0.079609506
146	0xbccaf632	-0.024775598
147	0xbd6c8bae	-0.057750396
148	0x3d8cc9f5	0.06874458
149	0x3cd193f4	0.025583245
150	0xbd39bad3	-0.045344185
151	0x3bf02926	0.007329124
152	0x3b0141e6	0.0019723116
153	0x3c06332b	0.00819091
154	0x3c80059b	0.015627673
155	0xbd61a5c6	-0.055089734
156	0x3c0945fd	0.008378503
157	0xbca71812	-0.02039722
158	0xbc969711	-0.018382581
159	0xbc6c9f2f	-0.014442249
160	0xbd80d5ff	-0.062908165
161	0x3d0ab2e7	0.03386202
162	0x3d206fa6	0.039168976
163	0x3c92d060	0.017921627
164	0x3d3a4be9	0.04548255
165	0xbd5cf81f	-0.053947564
166	0x3d8ac031	0.06774939
167	0xbbcdf892	-0.0062857354
168	0x3d1d11ef	0.03834718
169	0xbcc8f2d9	-0.024529861
170	0xbcbd9b33	-0.023145294
171	0x3ba03a82	0.004889787
172	0xbc0bce2c	-0.008533042
173	0xbd243778	-0.04009196
174	0x3bb2b241	0.0054533784
175	0x3caf61f8	0.02140902
176	0xbc61640f	-0.013756766
177	0xbbdaafec	-0.0066738036
178	0xbd62b477	-0.055347886
179	0xbccf4838	-0.025302991
180	0xbccc92c6	-0.02497233
181	0x3c95247d	0.018205876
182	0xbc73332f	-0.014843746
183	0x3bd2ac06	0.006429198
184	0x3ba0427b	0.0048907376
185	0x3d40ce51	0.04707176
186	0xbd0aa62c	-0.03384988
187	0x3d553685	0.052053947
188	0xbd48c284	-0.04901363
189	0x3d23cd19	0.03999052
190	0xbcb2cfb5	-0.021827558
191	0xbcc1a68d	-0.023638988
192	0xbd351566	-0.04420986
193	0xbd14fe6e	-0.036375456
194	0xbd46c2ef	-0.048525747
195	0xbd60d011	-0.054885928
196	0x3d1b9ae1	0.0379895
197	0x3d173890	0.036919177
198	0x3c9df94a	0.01928391
199	0xb9ffbaf5	-0.00048776684
200	0xbc60b7ed	-0.013715726
201	0xbd645a2b	-0.055750053
202	0xb9b5a50b	-0.00034645977
203	0x3d14a50c	0.036290213
204	0xbbf36781	-0.00742811
205	0x3d38e791	0.045142714
206	0x3cd4246b	0.025896272
207	0x3c9bee97	0.019034667
208	0xbb865754	-0.004099766
209	0xbcf100f7	-0.029419405
210	0xbb9a9e02	-0.004718543
211	0xbc357124	-0.011074338
212	0x3ce527f5	0.027973155
213	0x3d4947b1	0.049140636
214	0x3d2fbaf3	0.042902898
215	0x3d205980	0.039147854
216	0x3c748cbb	0.014926131
217	0x3d1a6f59	0.037703846
218	0x3cf515d5	0.029917637
219	0xbc82c854	-0.015964665
220	0xbce6d2fe	-0.02817678
221	0x3cc90d6b	0.024542531
222	0x3d3f7c6e	0.046749525
223	0xbcb506e9	-0.022098022
224	0x3bd2081a	0.006409657
225	0xbc73196e	-0.014837606
226	0xbd8f4535	-0.06995622
227	0x3d5d49c4	0.054025427
228	0xbd12847c	-0.03577088
229	0x3d4a9ae9	0.04946414
230	0xbc7ce8d9	-0.015436375
231	0x3d21bdfd	0.039487828
232	0xbd6747e4	-0.056465045
233	0xbcb3c8f8	-0.021946415
234	0x3d3f7d6f	0.046750482
235	0xbbad424a	-0.0052874433
236	0xbc904e3b	-0.017615428
237	0xbc8066dd	-0.015674049
238	0xbc8c859d	-0.017153556
239	0xbce3e62c	-0.027819715
240	0x3c995d67	0.018721296
241	0x3c92c3dc	0.017915659
242	0xbca4c063	-0.020111268
243	0x3d2ab5e5	0.041677374
244	0x3d00ca6f	0.031443056
245	0xbd2fb396	-0.042895876
246	0xbc07d998	-0.0082916245
247	0xbd6ca9b0	-0.057779014
248	0x3d68c761	0.056830768
249	0xbd95b0ba	-0.073090985
250	0xbd855763	-0.06510808
251	0xbd2e8e3a	-0.042616107
252	0x3d765dbf	0.060147997
253	0x3c906057	0.017624063
254	0x3d67163f	0.0564177
255	0xbcae0e61	-0.02124709
