deep_learning_models/best_lda_model.pth (torch, 182010 bytes, 16 tensors)

model.0.weight f4 [256, 3]
00000000: 331b 67be 766c 983e fa56 b9be 330e ba3e
00000010: 34a6 1d3e 7705 8bbc a274 03bf 085f bfbe
00000020: 4400 c53d 82bc 74be 26e8 873e c35f ff3e
00000030: cd24 97be bde2 bb3e 9008 9bbe 7be1 c7bd
00000040: 5c43 0a3f 695e 13bf ffb9 983e 5bfa 80be
00000050: 89e1 50be cbdc ac3e 2e59 c9bd 3f9d f7be
00000060: 2009 cb3e 2944 0d3c 525d 3cbe ce12 3dbe
00000070: 56f6 0d3f d82d d7be aad9 58bd 1d28 c9be
00000080: faa8 9eba 196c bc3e 68a1 d43e 2cf9 eabe
00000090: 6181 acbe ca69 e2be bcc7 f8be b1e6 3cbb
000000a0: 3dd0 a63d fd96 a9be d4f2 ae3e b520 9e3d
000000b0: af4d a0bd 77be 03bd 2737 e3be 02a8 10be
000000c0: 21f6 4dbe 4496 c03e 29c5 dfbd 65fe 21be
000000d0: 9e86 dfbe 3047 673e 1c87 70bc 8e13 05bf
000000e0: 4a17 fcbe 869c 873e 2323 00bf 6aed afbe
000000f0: 34a6 2b3e d077 b5bb de43 01bf 50b6 cf3e
00000100: 4599 923e 71ce edbe 325f f03e d562 7e3e
00000110: 65ec 6bbe 73b4 d83e 18c4 04bf cb7e 103f
00000120: 01fc 9c3d ad57 adbe 3d1e 06bf d417 76bc
00000130: 9188 d8bd 50c6 e2be 210c 2bbc 066c cc3e
00000140: 9d5b 123e df6a 82bd 71e9 aa3d e256 713e
00000150: 01d6 f7be 32c0 c3be 3832 00bf ef2a 973c
00000160: 81df 96be 2c5b 0b3d a1fa 203e 02cb 0c3c
00000170: c207 c83e ce6b d03e fc69 16bf ff60 153e
00000180: 30dd d43e e0e5 f33e 835c e4be c3b6 d2bd
00000190: b64d 02bf c95b f73e fcc8 753c 98ae 013f
000001a0: 8344 0e3f 0c70 1b3e df80 113e 098f 783e
000001b0: e145 b63e 8380 d1bc e61f 0bbf 6c5c 953e
000001c0: 6bab 9f3d a1bb dd3b 38f7 e53e a561 983e
000001d0: 9835 9fbe 3dc5 e1be 60e0 f23d c755 b23e
000001e0: 7f11 60be 4822 843e a963 b43e db5d 0f3f
000001f0: e43e b0bb 1ddd f63e 678f 563e c55c c73d
00000200: 8cb6 03bf 9e7f a1be e451 773d ccf1 be3d
00000210: ace7 bfbe af29 c5be 6322 b9be a342 9fbc
00000220: 2a98 c7be ac63 b1be 150b 26bc b90c f03d
00000230: 5b92 853e bfb9 dd3d b78f fa3e 283d 143e
00000240: c3bc 833e cd2f 843d 19b6 d4be e631 7fbe
00000250: 17b7 393e d731 83bc 9c8b 32be 4214 b03d
00000260: 18db d73e 990a b4bc cc4f 733e 1232 b8be
00000270: 585f 443e 585a e1be e315 75be c1cf 9e3e
00000280: 9eb0 f4be a7b6 df3e 53d5 f0be 9ac3 a83e
00000290: 85fa 06be c116 ba3e 0b9d b0be 893a a93e
000002a0: 2562 8c3e d4a9 82bd 1762 3e3e 313d 09bf
000002b0: 3560 c53e fbf1 66be 1b1b f53e d147 0ebf
000002c0: 0d52 d7be a38d ec3e f54d 87bd 3982 103f
000002d0: 4b49 f8be 30a9 8a3e 3fa7 123f 2727 d2bd
000002e0: 2192 0b3e 3e7d 0cbf f48e b73e 3251 0cbf
000002f0: 6695 52be 83ec 3f3e f620 4d3e 9be5 a2be
00000300: 10ae 84be aa26 a5be 6799 dabe 56d2 8d3e
00000310: 29b4 d8bd a860 9d3e 2fda e83e 43f0 603e
00000320: 049d b2bd 16da 55be 27b3 063f 324c a13e
00000330: 5fee c7be 0a28 8ebe 951c bb3e 6b74 57bd
00000340: 40ba a53e 42c3 e53e 4db4 d53e b086 fd3b
00000350: 843b c63e 6fb7 97bd 9c4a 0abf 0023 5fbe
00000360: f261 babe 8ec6 be3e 5186 29be e466 103e
00000370: 9d03 00bf edfb 83be 8ba8 0c3f 73f5 8e3e
00000380: b8fb f5bd 4412 0f3f 20ea 793e a203 08bf
00000390: 7194 c0be f4cb 0e3e ae66 d33e 6a7c b3be
000003a0: bcc8 953e fdf6 cc3e f5fb 833e adee 1abd
000003b0: 44c5 9bbe a124 90bd c0cc 08be 237f a03e
000003c0: 6c58 49be f85d 25bd 3060 87be 8d8e dabe
000003d0: cc95 40be 7b1d d23b 7e5d dc3d f5fa ed3e
000003e0: e131 063f d30f d63e f846 8c3d 9e80 8bbe
000003f0: bb14 e03d 650f bfbe a241 0b3f bdbc 803e
-0.2256897 0.2977025 -0.3619917 0.36338958 0.15395433 -0.01697038 -0.5134984 -0.3737719
0.09619191 -0.23900035 0.26544303 0.49877748 -0.29520264 0.36696425 -0.3027997 -0.09759804
0.5400903 -0.57565933 0.29829404 -0.25191006 -0.20398535 0.33762202 -0.09831463 -0.48362157
0.396554 0.008622208 -0.18394974 -0.18464205 0.55454004 -0.42027164 -0.052941956 -0.39288417
-0.0012104802 0.36801222 0.41529393 -0.45893228 -0.33692458 -0.44221336 -0.48589885 -0.0028824026
0.08145187 -0.33123007 0.34169638 0.07721082 -0.07827317 -0.032164063 -0.44378015 -0.1412659
-0.20113422 0.37614644 -0.10926277 -0.158197 -0.43657392 0.2258575 -0.01468065 -0.51982963
-0.49236518 0.26486605 -0.50053614 -0.3436082 0.1676262 -0.0055379644 -0.5049418 0.4056878
0.2863256 -0.46446565 0.46947628 0.24842389 -0.23039396 0.42325172 -0.51861715 0.5644347
0.076652534 -0.33855954 -0.5238989 -0.0150203295 -0.10572923 -0.44291925 -0.0104399035 0.39926165
0.1429276 -0.0636804 0.08345307 0.235683 -0.4840546 -0.3823257 -0.5007663 0.01845309
-0.29467395 0.034022495 0.15720607 0.008593323 0.3906842 0.40707248 -0.5875547 0.14587782
0.41575003 0.47636318 -0.4460183 -0.10288765 -0.5089983 0.48312214 0.015001532 0.50657034
0.5557329 0.15179461 0.14209317 0.24273314 0.35600188 -0.025573974 -0.5434555 0.29172075
0.07796367 0.006766752 0.44915175 0.29761997 -0.31095576 -0.44095793 0.118592024 0.34831068
-0.21881674 0.25807405 0.35232285 0.5600259 -0.005378591 0.4821557 0.20953141 0.09734491
-0.5145042 -0.31542677 0.06038083 0.09323463 -0.3748144 -0.38508365 -0.36159047 -0.019440955
-0.3898328 -0.34646356 -0.010134478 0.11721177 0.26088223 0.10826444 0.4893777 0.14476454
0.2572995 0.0645443 -0.4154518 -0.24921378 0.1813625 -0.016014976 -0.17436069 0.08597614
0.42159343 -0.02197771 0.23760909 -0.359757 0.19176996 -0.4401424 -0.2393413 0.3101788
-0.47790998 0.4369404 -0.47037753 0.32961732 -0.13181503 0.36345485 -0.34494814 0.3305247
0.27418628 -0.063800484 0.18592106 -0.53608996 0.38549963 -0.22553246 0.47872242 -0.55578333
-0.42054787 0.4620181 -0.06606666 0.56448704 -0.48493418 0.27082205 0.5728645 -0.10261374
0.13629963 -0.54878604 0.35851252 -0.54811394 -0.20564803 0.18742566 0.20032105 -0.318158
-0.2591405 -0.3225606 -0.42695162 0.27699536 -0.10581238 0.30737805 0.4547896 0.21966653
-0.087213546 -0.20883974 0.52617115 0.31503445 -0.3904905 -0.27764922 0.36545244 -0.05260126
0.3236866 0.44875532 0.4173912 0.0077370033 0.38717282 -0.07408034 -0.54020095 -0.21790695
-0.3640285 0.3726086 -0.16555144 0.1410175 -0.50005513 -0.25778142 0.54944676 0.27921638
-0.12010902 0.55887246 0.24405718 -0.53130543 -0.37613252 0.1394499 0.41289276 -0.35055858
0.2925471 0.40032187 0.25778165 -0.037825275 -0.3042394 -0.070382364 -0.13359356 0.31346998
-0.19662637 -0.04037282 -0.26440573 -0.42686883 -0.18807143 0.0064122058 0.1076002 0.46480528
0.5241986 0.41808948 0.06849474 -0.27246565 0.10941454 -0.37316433 0.5439702 0.25143996

model.0.bias f4 [256]
00000000: 30ea ca3d b4c0 2f3e e19f 02bf 2735 30be
00000010: 77b2 b3be 29ef f0be 69f6 bbbd 2c7f 5fbe
00000020: 1077 96be 07ff d03d a77b f23e 9ee2 1cbe
00000030: 37f5 603e 52b1 783e 774d 50be fe9c 833e
00000040: ef6a 333e 489f d2be 484d 95bd 0385 273e
00000050: b3fa a9be 081e 103f 8650 6e3e 0704 863e
00000060: 6510 293d d176 e23d ba6b 973e 87a5 11bf
00000070: d182 9f3e c5df ac3e 6440 e53b 350d 8bbe
00000080: 5d76 873e 3923 e7be d451 d0bd a1f3 03bf
00000090: 162c 8e3d 9799 8d3d b062 0ebf 23e5 03bf
000000a0: 0e39 443d 9079 6abe fdd7 473e 27db 63be
000000b0: fd60 0dbf bbee 303e 11e5 10bf 88c3 74be
000000c0: a369 833e 9990 d6be c615 563e 3906 083f
000000d0: aadc 623e d58e 0d3f e4ca f2bd 7ef3 28be
000000e0: 2e05 9ebe 355c c03e c0f2 fabe 64d5 db3e
000000f0: 56ac 873d 7598 ebbe fedd 72be d2fd 4abd
00000100: 30eb cabe c1b4 b7be 6bc6 e7be a11b b2be
00000110: d071 c23e d4c9 d73e acac 543d 31b2 1abe
00000120: 46e0 ce3e 42f8 6e3c d58d 0dbf 46b0 523e
00000130: 6fa5 713e 35ba 63bd 80bf 1ebe 0e05 253d
00000140: 55f2 c3be 64f0 2b3e 8934 0e3d dd75 093f
00000150: 9b93 73be 0749 d73e b963 2b3c 4727 133f
00000160: ad20 8f3e 4489 953e e6e7 01be 7e99 fabe
00000170: a1be d7bd 604e 91bb 03ce 0f3f b971 393e
00000180: 16f6 b63e 66ed 8ebe 7c50 013f bb01 033f
00000190: 438f 0e3e 9679 bb3d 9006 e43e 9e63 003f
000001a0: aa2e 553e 225b aaba f72a 69be 2559 c9be
000001b0: 51b0 c8be e2b7 11bf ca79 0bbc 3985 c2bd
000001c0: 4eba bfbe 1aab 7ebe 815f 803e 46c6 eb3e
000001d0: dd45 ccbd e8c3 09bf 3f56 233e b64d 81bd
000001e0: d32a 25be 1ed9 ddbe 8ff4 913e 7cf9 193e
000001f0: 235e 643e 2c63 9d3e e721 6ebe 06b5 513e
00000200: 03d4 94bd 9790 82be 830c bb3e 8c01 25be
00000210: f86b c43e caf6 7ebe 20af ddbe c745 0cbf
00000220: 12fe adbe b5b7 07bf 45ac 013e c437 11bf
00000230: 4362 8d3d 1a54 913e a1fd 5f3e ef5e 0b3f
00000240: 62de 973e 9daa d8bd 31a2 993e aa85 0bbf
00000250: b110 9a3e f4b5 e1be 12f8 3e3e b902 af3e
00000260: 4e99 70bd 477b c0be 638d d7be 42ae bcbd
00000270: 79d6 ab3e 9aa7 a13c 9329 e33e 0cd0 6c3d
00000280: fea3 4fbe a253 8ebe babf b2be da22 1e3e
00000290: 7d90 b6be 1b1b 443e 9b26 ef3e b6ba fcbe
000002a0: 09ba da3d 0ee9 82be df12 e6bc 95bc e73c
000002b0: fb7e 4cbe c281 debe 7157 bc3e 2b34 f43e
000002c0: 8d0b 0bbe 1e1c 0abf 9b6b 393c f393 483c
000002d0: 7d8a dcbe bf91 cabe 2116 adbe 40c4 fabe
000002e0: d4d9 e63e 1088 06bf 7f3e d23c 8623 0c3f
000002f0: 2138 0b3f a1e3 e5bd f628 05bb a8ad f33e
00000300: 08ff ecbe c738 8cbc e601 bbbe 9310 0e3e
00000310: 8739 013f 3e28 c13d 0fa8 eebe 97a6 fd3c
00000320: 881a e33e aec3 7ebe 18d2 003f a389 01be
00000330: 1bfb fb3d 318f 28bd bf59 e43e f6f9 ad3e
00000340: 5f51 5dbe fb2f 09bf c5bc b9be 76a9 e1bd
00000350: 0174 2cbc 5f72 a8bd e0ab 75bd 6fee f93d
00000360: 089f e73e 3533 f23e a6c8 083f eda3 a3be
00000370: 12d1 a1be bb4a 843e e2d6 5a3c d25c 5c3e
00000380: b787 063f f68a 133f 2d8c a03e 94e1 22bc
00000390: 8d69 52be 4f02 60be 555b f9be b3eb 4abe
000003a0: 8b31 a73d da55 acbe 0224 713e 4642 2b3d
000003b0: ff09 d93e 63ca 0d3f 7094 efbe baff a73e
000003c0: 1cc5 b23e 2344 063f 4991 ed3d f47b e7be
000003d0: 122a b1be 3c68 453e ec8e 0e3f 5650 da3d
000003e0: e56d c6be 69f7 5dbe 0a95 bebd 865a 44be
000003f0: 866f 983d 0e87 843e 6fd6 9ebe 70c5 ca3e
0.09907949 0.17163354 -0.51025206 -0.17207776 -0.35097095 -0.47057465 -0.091778584 -0.21825856
-0.29387712 0.102048926 0.47359964 -0.15320823 0.21968542 0.24286392 -0.2034205 0.25705713
0.1752126 -0.41137147 -0.07290131 0.16359334 -0.3319908 0.56295824 0.23272905 0.26174948
0.0412754 0.11057819 0.29574376 -0.568932 0.31154492 0.33764473 0.0069962014 -0.27158514
0.26457492 -0.4514406 -0.101718575 -0.51543623 0.069420025 0.069140606 -0.55619335 -0.5152151
0.047905974 -0.22897935 0.19515987 -0.22251569 -0.5522612 0.17278568 -0.5659953 -0.23902714
0.25666532 -0.41907194 0.20906743 0.53134495 0.22154489 0.5529607 -0.118551046 -0.16499135
-0.30863327 0.37570348 -0.4901333 0.42936242 0.06624667 -0.46014753 -0.23717496 -0.04955847
-0.3963256 -0.35880092 -0.45268568 -0.34786704 0.37977457 0.4214617 0.051922485 -0.15107037
0.40405482 0.014585556 -0.55294544 0.20575055 0.23598264 -0.055597503 -0.15502739 0.040288024
-0.38270822 0.1679092 0.03471807 0.5369547 -0.23786776 0.42047903 0.010460787 0.5748181
0.27954617 0.29206288 -0.12686118 -0.4894523 -0.105344065 -0.004434392 0.56173724 0.18109788
0.35734624 -0.27915496 0.50513434 0.51174515 0.13921838 0.0915405 0.44536257 0.50152004
0.20818582 -0.001299713 -0.22770296 -0.39325824 -0.3919702 -0.5692121 -0.0085129235 -0.094980665
-0.37446827 -0.24869958 0.25072864 0.46049708 -0.09974263 -0.53814554 0.15950869 -0.0631365
-0.16129617 -0.4332971 0.28506896 0.15036577 0.22301535 0.30739725 -0.2325512 0.20479211
-0.072670005 -0.25500938 0.36532983 -0.16113871 0.38363624 -0.2489883 -0.43297672 -0.5479397
-0.33982903 -0.5301469 0.12663372 -0.56725717 0.069035076 0.28384477 0.21874095 0.5444173
0.29661852 -0.10579417 0.30006555 -0.5450083 0.3009086 -0.44084132 0.18649319 0.34181765
-0.058739953 -0.37594053 -0.42100057 -0.092129245 0.33562067 0.019733239 0.44367656 0.057815596
-0.20277402 -0.27798182 -0.349119 0.15442982 -0.3565711 0.19150965 0.4670914 -0.493612
0.10680015 -0.25568432 -0.02808517 0.028288165 -0.19970314 -0.43458372 0.36785462 0.4769605
-0.13578625 -0.53949153 0.011317159 0.012242305 -0.43074408 -0.3956432 -0.33805946 -0.48977852
0.45088065 -0.52551365 0.025664566 0.54741704 0.5438252 -0.112250574 -0.0020318604 0.47593427
-0.46288323 -0.017116917 -0.36524886 0.1387351 0.50478405 0.09431504 -0.46612594 0.030963225
0.4435618 -0.24879333 0.5032058 -0.1265016 0.12303754 -0.041152183 0.4459972 0.33979768
-0.21613072 -0.5358884 -0.36276832 -0.1101865 -0.010525704 -0.082249396 -0.059978366 0.12203681
0.4523852 0.47304693 0.53431165 -0.31961003 -0.3160482 0.25838265 0.013356896 0.21519783
0.52550834 0.5763391 0.31356946 -0.009941477 -0.20548077 -0.2187588 -0.48702493 -0.19816475
0.081637464 -0.3365925 0.23548892 0.04181125 0.4239044 0.5538694 -0.46792936 0.3281229
0.34916008 0.5244772 0.115999766 -0.45211756 -0.3460241 0.19278044 0.5568683 0.10659854
-0.38755718 -0.2167641 -0.09305771 -0.19175157 0.074431464 0.2588429 -0.31022975 0.39603758

model.1.weight f4 [256]
00000000: 3e9f 7f3f feee 803f 6411 823f eec3 7d3f
00000010: 9fe5 803f b241 7d3f f1bc 803f 0999 7c3f
00000020: f1ae 7a3f d3c9 7b3f b740 813f 5987 7b3f
00000030: 7272 793f 0666 813f e2af 803f d285 793f
00000040: 4667 7b3f 262f 803f ff28 7c3f b6ea 793f
00000050: aa8e 7b3f c245 783f d9fb 803f 9634 7f3f
00000060: 6dd2 7e3f 1dc0 803f 64bf 803f 10a9 823f
00000070: b53b 7f3f f608 7b3f 8f5a 7d3f 25e5 7e3f
00000080: e3ca 7e3f ed17 823f 29ad 7c3f 15b6 793f
00000090: 5db4 793f 12ca 7f3f e55e 7e3f be81 803f
000000a0: 61ca 7b3f 7d57 833f cf63 7b3f f8e9 803f
000000b0: f15b 753f ef09 7d3f 71bc 7b3f 8cd4 843f
000000c0: 3203 793f 3eb4 813f d434 7e3f 1a8d 783f
000000d0: 47cb 7e3f 28d2 773f 6c56 813f 3698 7d3f
000000e0: b12c 833f 76b5 7d3f 44cb 7a3f 38c9 7d3f
000000f0: 0608 7d3f af0e 813f 1427 803f 334c 7f3f
00000100: 3580 7d3f 260d 7c3f df34 7e3f 8f43 7b3f
00000110: 7bec 823f 3b6d 803f 8784 7c3f b867 7f3f
00000120: 34f1 7c3f da31 823f 4ede 7e3f f418 833f
00000130: 552d 833f 1054 803f b50e 7f3f f4e4 813f
00000140: 8aaf 813f d5d7 803f c3b4 813f 08b8 7b3f
00000150: 135d 803f 6233 803f 6f3c 843f 6785 803f
00000160: db29 7f3f edff 813f 5012 853f aa82 7f3f
00000170: 9fb5 813f aa4f 7a3f f8cb 7b3f 1d36 813f
00000180: 61b9 803f cddb 7f3f fbcd 7d3f 4851 803f
00000190: 48af 7c3f 9b42 7d3f ef45 803f 9581 803f
000001a0: 04ed 7d3f 3bf1 7b3f ff5f 823f e06c 803f
000001b0: 642e 833f 5d37 7c3f a802 823f f50c 803f
000001c0: d4ed 7c3f 90b7 803f c3e7 7d3f eb91 843f
000001d0: b334 7c3f 1c7e 843f f569 7b3f d2db 7b3f
000001e0: 2ef4 803f 1e18 803f caf6 803f 113f 803f
000001f0: 5506 783f a327 7a3f 0b47 803f a253 803f
00000200: 3783 803f 40cb 783f 6e59 803f 85e0 803f
00000210: 056a 803f 0b84 7f3f 4243 7f3f 9151 813f
00000220: f2d2 773f 251c 803f 9b55 7e3f af68 7f3f
00000230: 3795 833f 77a7 7f3f 2765 7f3f e495 7f3f
00000240: 3d41 7a3f fa69 773f 4b4b 823f 3612 7f3f
00000250: 046b 813f 2468 803f c576 803f 4e64 763f
00000260: 5a8e 803f 3754 803f 3714 7a3f 0074 7d3f
00000270: 4c71 803f 31ba 7e3f b3bf 813f 6e00 7f3f
00000280: 3387 7c3f ecae 813f c79d 7a3f 7419 7f3f
00000290: c28d 843f f7d0 803f 25b4 813f 85d2 803f
000002a0: 1a1f 823f 604b 7e3f a7bc 7f3f 56c0 7d3f
000002b0: cba9 7f3f 84c2 823f 2a7c 803f e04f 833f
000002c0: 5fd4 7d3f 1823 823f 63aa 7e3f 1106 7c3f
000002d0: 781e 823f eb3e 803f 95ae 823f aa70 823f
000002e0: df0e 7b3f 15d4 803f 2891 7e3f 6b67 7c3f
000002f0: 5f7b 823f cb2b 7b3f 6ed3 803f 7b4b 803f
00000300: d85c 7b3f 2f54 833f 99d7 793f 1a53 7e3f
00000310: 7992 803f b8e6 7f3f 5c38 803f cede 803f
00000320: 4d70 7b3f 02ee 803f c7ad 793f 886f 803f
00000330: 9470 7a3f 1eb0 803f d275 813f 3fc5 7d3f
00000340: 69b4 833f 4d17 7e3f aae9 813f 9e60 803f
00000350: 0b71 813f 6c27 833f cacd 7d3f a410 813f
00000360: 423b 7e3f 108e 823f 5ad8 833f adae 803f
00000370: 381b 813f e932 7e3f 5b9c 813f f154 813f
00000380: cb2b 7d3f c3fb 7f3f 8f8c 813f 27f8 803f
00000390: 34ee 813f 8497 7a3f a910 803f f1f4 803f
000003a0: 3266 7f3f aa00 813f 25e1 803f 030c 813f
000003b0: fb6d 813f 54fb 823f 4658 833f a482 833f
000003c0: dda6 7e3f efb0 7a3f 0df3 803f 2e90 7e3f
000003d0: 735c 863f ff45 833f 6959 7b3f 92af 823f
000003e0: 7374 813f ae06 803f 572a 7f3f f85b 823f
000003f0: f6c0 803f 3870 803f a096 833f db07 833f
0.9985236 1.0072935 1.0161557 0.9912709 1.0070075 0.9892837 1.005766 0.98671013
0.9792319 0.98354834 1.0097874 0.982534 0.97440255 1.010926 1.0053675 0.9746982
0.9820446 1.0014389 0.98500055 0.97623765 0.98264563 0.9698144 1.0076858 0.99689615
0.99539834 1.0058628 1.0058408 1.0207844 0.9970048 0.9806055 0.98966306 0.99568397
0.9952833 1.0163552 0.9870172 0.9754346 0.9754084 0.9991771 0.9936355 1.0039594
0.9835568 1.0261074 0.9819917 1.0071402 0.95843416 0.9884328 0.98334414 1.0377364
0.972705 1.013313 0.9929936 0.97090304 0.99528927 0.9680505 1.0104499 0.9906038
1.0248014 0.9910501 0.9796641 0.9913516 0.9884037 1.0082606 1.0011926 0.99725646
0.99023753 0.9845756 0.99299425 0.9814996 1.0228418 1.0033334 0.9863972 0.9976764
0.98805547 1.0171463 0.9955796 1.024199 1.0248209 1.0025654 0.99631816 1.0147996
1.0131695 1.0065867 1.0133289 0.98327684 1.0028404 1.0015681 1.0330943 1.0040711
0.9967324 1.0156227 1.0396214 0.9980875 1.0133551 0.9777781 0.98358107 1.0094639
1.0056573 0.99944764 0.99142426 1.0024805 0.9870496 0.98929757 1.0021342 1.0039545
0.9918978 0.98414963 1.0185546 1.0033226 1.0248532 0.9852198 1.0157061 1.0003954
0.98800397 1.0056019 0.99181765 1.0357031 0.9851791 1.0350986 0.9820855 0.98382294
1.0074518 1.000736 1.0075314 1.0019246 0.9688466 0.9771673 1.002168 1.0025523
1.0040044 0.97185135 1.0027292 1.0068518 1.0032355 0.99810857 0.99712 1.0103017
0.9680625 1.0008589 0.99349374 0.9976911 1.0279912 0.99864906 0.9976372 0.9983809
0.97755796 0.9664608 1.0179228 0.9963716 1.0110784 1.0031781 1.0036246 0.962468
1.0043442 1.00257 0.97687095 0.99005127 1.0034575 0.99502856 1.0136627 0.9961003
0.986438 1.0131507 0.97897 0.99648213 1.0355761 1.0063771 1.0133101 1.0064245
1.0165741 0.99333763 0.99897236 0.99121606 0.9986846 1.0215611 1.0037892 1.0258751
0.9915218 1.016696 0.9947874 0.98446757 1.0165548 1.0019201 1.0209528 1.0190632
0.98069566 1.0064722 0.9944024 0.98595303 1.01939 0.981137 1.0064523 1.0023035
0.98188543 1.0260066 0.975946 0.9934555 1.00447 0.99961424 1.00172 1.0067995
0.9821823 1.0072634 0.9753079 1.0034037 0.9782803 1.0053747 1.0114081 0.991291
1.0289432 0.99254304 1.0149434 1.0029485 1.0112623 1.0246406 0.99142134 1.0083203
0.9930917 1.0199604 1.03004 1.0053307 1.0086432 0.9929643 1.0125841 1.0104047
0.9889495 0.9999353 1.012102 1.007573 1.0150819 0.97887444 1.0005084 1.007475
0.9976531 1.0078328 1.0068709 1.0081791 1.0111688 1.0232949 1.0261314 1.0274243
0.99473363 0.9792623 1.0074173 0.9943875 1.0496963 1.0255736 0.98183304 1.020983
1.0113662 1.0002038 0.9967398 1.0184317 1.0058887 1.0034246 1.0280342 1.0236772

model.1.bias f4 [256]
00000000: 9632 4c3a 43d4 0f3b e5b3 5e3b 8478 0e3c
00000010: 5fb9 953b b4ba 233d c8e5 a23b b4cb febb
00000020: ecc3 11bc 01ed 60ba ace0 473b 276d 283b
00000030: 1b60 70bb 9748 b23b 1639 32bb 73a0 68bb
00000040: 91d9 8abc 2075 f73b 10f7 dbbc e141 333c
00000050: 2e97 2fbc ab82 88bc 6f87 393c 2acb e6ba
00000060: de5f 62bb 5850 b339 80f4 e63b a09d 8a3b
00000070: e6de dfbb 95c7 cdbc 5eda b63a be6e 30bd
00000080: 734a 2f3c 8f6b 36bc 7030 013d 63f8 b0bc
00000090: 4f25 38bc 45aa 923b 1af1 ac3a a966 143c
000000a0: cf4b c03a 3c84 193c 0f4e 98bc 8dd9 c63c
000000b0: af10 f9bc ba9a f13c 1b64 92bc a0ac 3f3c
000000c0: 9dec f6bc eb14 743c 66e1 e7bb c63c a1bc
000000d0: 1fe1 053c f6d5 9abc f9f0 febb dd0c 833c
000000e0: ea9b 413c 050a 9cbc 67bc f7bc 53f1 e4bb
000000f0: 0928 c3bc 77d5 cc3c 4218 2fbc 505a 6f3b
00000100: 4998 71bc 016b 8cba 8cb2 abbc 79cd aebb
00000110: e094 aeba b75c df3b 38f4 50bc 80ab 663c
00000120: 4588 3abc ff96 363d 8344 7c3a 1a63 f23c
00000130: 5be8 113d 3451 b33b 5572 283c 6c1d d6bb
00000140: dd0c 223d 5425 48bc 1a54 2d3c 6141 87bb
00000150: 500f 5abb 3a2a e83a d719 fb3c bd9e 0c3c
00000160: 1c7e 40bc 5840 c0bc f1b5 033d 990a 033d
00000170: 3ad2 143c 1353 4dbc 9a0c b93b 824c 693c
00000180: 3e82 843c cff0 3dbb 9567 b4bc a411 c63b
00000190: 1a80 fc3b a080 74bb 6506 07ba 1ea0 0d3d
000001a0: e304 933c 911f 953b 76d9 003d e20e 96bc
000001b0: cfc6 3e3d 09bf 2d3c e71f 9abb e34a 153c
000001c0: 585d 43bc e3d2 a03b ddd6 12bc 8cda 473d
000001d0: 71c5 8abc e609 183d 6f78 a13c 20d5 70bc
000001e0: 6d9e 233c c2e3 c3bb c3fa ad3b 212f 20bc
000001f0: 4ce4 c8bc 4dd2 1b3b 6215 433c 3fee 103c
00000200: 56e0 023d 6b41 a6bc 6519 f2bb 1b89 0b3c
00000210: c878 6b3c cea1 953c 6b3b 40bc 15b7 0b3c
00000220: db4f d1bb 6941 7ebc 7b96 94bc 67cc 8b3c
00000230: bf9b 0b3c de85 c1bc f146 03bc 7e9f cfbc
00000240: ac0e 11bc d1c5 44bc 100d dc3c 0392 053d
00000250: ac78 233c d4cf 033d f42f f9bb 8f8b 06bd
00000260: 0a25 993b cfde 33bc f993 03bd ecbb f83b
00000270: b4c1 6f3c f21a 3bbb 4237 253d f2a7 b3bc
00000280: 4d89 ecbc 64a9 f2b9 de89 e1bc ae5e 8cb9
00000290: c6a6 c03c 7ce6 a93c 8786 bd3b 34b1 93bc
000002a0: 518b e83c a5cb be3c 0f6b b3bc 87b9 1cbb
000002b0: 2657 b43c 1dbb 6f3c 1ef3 0f3b fdd9 203b
000002c0: 0987 1c3c 20cc 3c3d 5eef e9b9 f45f 7fba
000002d0: 6be7 fe3c 707e 08bc 01c1 083c 66c1 cebb
000002e0: 2c4c bbbb ceb2 df3c 56bf 87bc 86ea 2a3c
000002f0: c76c 23bc bf7e 90bc dc01 283c 9bd4 08bb
00000300: 660d 163c f800 ceb9 ae19 e03b 8dbd 83bc
00000310: 3802 7f3b 9636 4cbc 2e0b 41bc e2e6 453c
00000320: 417f 36bb d4bf a4ba 0bb3 883c 631a e03c
00000330: e90c 363c 2dce ecbb 0682 183d 9f0b e33c
00000340: bbee 0a3d 67e0 93bc a6ac 8b3c 22c2 e03c
00000350: a0a1 e83b 0c2c b93b 3719 c33c 359b f8bc
00000360: 6fb7 e23b 9713 af3b ef00 5c3c 46db d2b8
00000370: 139a 57bc 9482 623c 466a b13b b01d db3b
00000380: c86a 84bc 55ff 2e3c 4571 c83b 3c3b 2a3b
00000390: ec99 073c e559 a6bc dd48 093c 77f6 ed3b
000003a0: 4494 1f3a d495 e83c 26e0 d2bb 89e0 1f3c
000003b0: 6b6e 893c 9a01 043c c542 583c ef1b ef3b
000003c0: 0b9c ab3c ab56 933b 525d b33b f317 7dbb
000003d0: 7aeb c53c a0ff 46ba 3aef eabb ff68 24bc
000003e0: d941 723c 33bb 37bc 1ca6 593c 3f35 313d
000003f0: 1887 6b3b 04e6 813a 1eea 2c3c cc53 a9ba
0.00077895203 0.0021946586 0.0033981737 0.008695725 0.004569217 0.039972976 0.0049712397 -0.007775748
-0.008896809 -0.0008580238 0.0030498905 0.0025699825 -0.0036678377 0.0054407823 -0.002719467 -0.0035496026
-0.016949447 0.007551804 -0.026851207 0.010941 -0.010717196 -0.01666387 0.011323794 -0.0017608155
-0.0034542005 0.000342014 0.0070481896 0.004230216 -0.0068319915 -0.025119582 0.0013950577 -0.043074362
0.010698902 -0.011134042 0.031540334 -0.021602815 -0.011239364 0.004475864 0.0013194412 0.009057679
0.001467103 0.009369906 -0.018591909 0.024273658 -0.030403463 0.029492725 -0.01787 0.011698872
-0.030142123 0.014897565 -0.00707643 -0.0196823 0.008171349 -0.018900853 -0.007780191 0.015997345
0.011816958 -0.019047746 -0.030241204 -0.006986776 -0.023822801 0.025004132 -0.010686936 0.0036522336
-0.01474578 -0.0010713042 -0.020959161 -0.005334553 -0.0013319515 0.0068164724 -0.012753539 0.014078975
-0.011385028 0.044577595 0.0009623246 0.029588271 0.035621982 0.0054723267 0.010281165 -0.006534269
0.03956305 -0.012215931 0.010579133 -0.004127667 -0.0033273287 0.001771278 0.03065197 0.008582768
-0.011748817 -0.023468181 0.032155935 0.03199253 0.009083325 -0.0125320135 0.005647254 0.014239432
0.016175386 -0.0028982644 -0.022022048 0.0060445834 0.0077057006 -0.0037308112 -0.0005150794 0.034576528
0.017946666 0.004550882 0.031457387 -0.018317644 0.046576317 0.010604628 -0.00470351 0.009112093
-0.01192411 0.004907952 -0.00896236 0.048792407 -0.01693985 0.037118815 0.019710748 -0.01469925
0.009986502 -0.0059780786 0.005309434 -0.009776861 -0.024522923 0.0023776472 0.0119069535 0.008845865
0.031952225 -0.020294866 -0.007388281 0.008516575 0.014372058 0.018265631 -0.011732916 0.008527537
-0.0063876933 -0.015518525 -0.01813816 0.01706524 0.0085210195 -0.023623403 -0.008012519 -0.025344606
-0.008853596 -0.012010054 0.026861697 0.03260995 0.009977501 0.032180622 -0.0076045934 -0.032847937
0.004673605 -0.010978415 -0.03212354 0.0075907614 0.014633585 -0.0028549996 0.0403359 -0.021930669
-0.028874064 -0.00046284043 -0.02753156 -0.00026773423 0.023517024 0.020739786 0.005783859 -0.018028833
0.028386744 0.023290465 -0.021901635 -0.0023914294 0.022014212 0.014632014 0.0021964977 0.0024543994
0.009553679 0.046093106 -0.00044619566 -0.0009741776 0.031116208 -0.008330926 0.008346797 -0.006309676
-0.0057158675 0.02730694 -0.016570728 0.010431891 -0.009974665 -0.017638562 0.01025435 -0.0020878676
0.009158468 -0.00039292104 0.0068389988 -0.016081596 0.0038911235 -0.012464186 -0.011782451 0.0120789725
-0.0027846845 -0.0012569376 0.016686937 0.027356332 0.011111476 -0.0072267265 0.037233375 0.027715502
0.033919077 -0.01805134 0.017050099 0.02743632 0.0070993453 0.0056510027 0.023815734 -0.030347446
0.0069188396 0.0053429115 0.013427957 -0.00010054423 -0.013159293 0.013825078 0.00541428 0.0066868886
-0.016164199 0.010680993 0.0061170184 0.0025975248 0.008276444 -0.020306537 0.008379188 0.007262047
0.0006087462 0.028391756 -0.006435412 0.009758123 0.016776284 0.0080570225 0.013199513 0.007297031
0.02094843 0.0044964156 0.005473771 -0.0038619011 0.024160136 -0.00075911917 -0.0071696313 -0.010034799
0.014786207 -0.011214065 0.0132842325 0.04326367 0.0035938676 0.0009910469 0.010553865 -0.001291865

model.1.running_mean f4 [256]
00000000: 240f ef3d cc83 2f3e fa17 04bf bc29 29be
00000010: ac41 a9be 0e7b e3be 17f2 d1bd fe80 62be
00000020: 7a5c 98be a179 033e 0d20 ec3e b6fa 0ebe
00000030: a7c5 5c3e 8275 7f3e ca25 52be 0216 7a3e
00000040: 0ecd 443e e63b dabe 7c10 adbd 3127 163e
00000050: 7f6b a8be 375a 123f 362b 723e 0ad4 6c3e
00000060: a141 0e3d 1d0c e63d 3088 9d3e 995b 11bf
00000070: 4ab4 9f3e 6071 a73e c836 c039 b83c 99be
00000080: a904 8f3e 78ef f1be 10ff babd b60c 04bf
00000090: a0f2 8d3d 7d9a 893d 68ad 0cbf 1728 02bf
000000a0: 4c09 653d 3a2a 79be 4bf2 4d3e efde 5dbe
000000b0: 0a27 0ebf b9e6 273e f69a 10bf 6452 67be
000000c0: 6ff2 843e 4265 d1be 92d5 563e e336 0b3f
000000d0: ab7b 533e acee 063f ec25 cabd 2675 3ebe
000000e0: 855b a2be 9690 cc3e 69e9 02bf 1cb9 d33e
000000f0: d22f 9c3d 8632 e5be 867d 84be 9e1f 2cbd
00000100: c4e8 cbbe 5a88 bdbe e808 e7be ac42 a9be
00000110: 1e99 be3e d41f db3e 1521 293d e490 29be
00000120: b124 d93e 5880 bfba f4f4 0cbf 9084 583e
00000130: 1a85 773e 7f2c 38bd de86 20be 3a13 083d
00000140: 5a87 c1be c620 2c3e 26af 2e3d 2634 093f
00000150: 7449 84be f988 dc3e 40aa 47bc b42a 123f
00000160: 54a0 873e b086 963e fc23 f4bd c22c f8be
00000170: 3a6c fcbd 3206 d93b 0f50 153f 5229 333e
00000180: 9c30 b93e f553 8abe 9205 ff3e 2d1e 0a3f
00000190: a85d 023e b554 8c3d 537c e33e de36 013f
000001a0: f0f4 623e 60a4 8439 e28b 66be 2331 c3be
000001b0: 1428 c4be 778c 0dbf 22d8 68bc 57ef b8bd
000001c0: add6 c3be 3100 7fbe e9e9 783e 72bb ec3e
000001d0: 6a1d f4bd fd92 0abf 0487 1b3e e553 82bd
000001e0: e7d6 25be 56b2 d7be 9a15 9b3e 0886 0f3e
000001f0: 3a39 6e3e c771 9a3e 4fcc 6abe fe95 573e
00000200: a150 9bbd 778d 7abe 5dd5 b83e de47 3bbe
00000210: 7019 c33e f7eb 7abe 9ed3 e2be 71d5 08bf
00000220: 79de b2be 1a47 04bf a933 093e 1536 0ebf
00000230: 545c 953d fd37 923e 0a54 453e 0928 093f
00000240: 9f59 963e 5f83 ecbd f3ca a03e 3d56 07bf
00000250: c033 903e 6b7a e2be 12f0 413e 17a3 b03e
00000260: 1cdc 5cbd ab69 c9be 8829 d7be 5516 c4bd
00000270: e6ca af3e 8c22 4c3c 75c4 dd3e 3f96 653d
00000280: 7bc1 3bbe 5a61 95be 0fcb b2be 0dd9 2d3e
00000290: d56e b2be 8a76 4a3e ac70 f73e 2936 00bf
000002a0: 6518 b83d 815d 7dbe bc35 9cbc aec8 303d
000002b0: 228f 3ebe 4491 e0be 9ac0 ba3e 4bec f73e
000002c0: e67c 20be c1dc 07bf f489 c03c 308e 383c
000002d0: 588d d9be 7ac1 cdbe 6c76 bcbe d01c 01bf
000002e0: d754 e13e b9d1 03bf e1c9 d93c 7dcd 103f
000002f0: e2b2 103f 9ed2 cdbd e231 2e3c d76f fc3e
00000300: 0bca f3be d01a a4bc e989 b3be 461f 193e
00000310: c934 003f 2eff be3d 9dfc eabe 8e67 523d
00000320: c59a ed3e f35e 7fbe 16f8 003f 7239 ffbd
00000330: 8382 e93d 957c 1ebd 2957 db3e eef0 a33e
00000340: f315 61be b590 0dbf 3d42 c0be 6b5d 07be
00000350: feb5 de3b d456 a6bd 96d0 56bd ea7b c63d
00000360: 3f3f e93e b388 f63e 89a6 093f fcb9 a2be
00000370: 91ac 99be ea1f 8e3e 4856 ef3b 6eee 573e
00000380: a8fc 0b3f 3d94 113f b0a0 a23e 7e2b 0a3b
00000390: 78aa 64be 09db 67be 7aa8 ffbe 4ec5 5bbe
000003a0: 69fd af3d 69ee a8be 4acc 743e b98e 7f3d
000003b0: 8809 de3e 807d 073f 02da f5be 36db a93e
000003c0: 5989 b93e d7a6 073f 38c1 df3d 00e6 f2be
000003d0: 2b2a babe 3010 373e 86e4 0e3f fd6f f53d
000003e0: 73df cdbe c293 71be 033f 91bd 8a7e 45be
000003f0: ba22 823d e0c5 833e 032d a1be f96e cf3e
0.1167281 0.1714012 -0.51599085 -0.16519827 -0.33057916 -0.4442982 -0.10251253 -0.22119519
-0.29758054 0.12839366 0.46118203 -0.13962826 0.21559773 0.2494717 -0.20522228 0.24422458
0.19218847 -0.42623824 -0.0845041 0.14663388 -0.32894513 0.57168907 0.23649296 0.23127761
0.034730557 0.11232779 0.30767965 -0.5678039 0.31192237 0.32703686 0.0003666191 -0.29929137
0.27933243 -0.47253013 -0.091306806 -0.51581895 0.06931043 0.067189194 -0.54952097 -0.5084242
0.05591707 -0.24332514 0.20111959 -0.21667074 -0.5552832 0.16396607 -0.5648645 -0.22590023
0.25966212 -0.40897566 0.20979908 0.54380625 0.20652644 0.52707934 -0.09870514 -0.18599376
-0.3171045 0.3995406 -0.51137406 0.41352165 0.076263085 -0.4476511 -0.25877017 -0.04202234
-0.39826024 -0.3701809 -0.45123982 -0.3305868 0.37226194 0.4279772 0.041291315 -0.16559178
0.42410806 -0.0014610393 -0.5506127 0.21144319 0.24171868 -0.04496431 -0.15676448 0.03322146
-0.37798578 0.16809377 0.042647503 0.535952 -0.2583729 0.43073252 -0.012186587 0.5709641
0.26489508 0.29399633 -0.11920926 -0.48471648 -0.1232533 0.006623053 0.58325285 0.17496231
0.361699 -0.2701718 0.49808937 0.53952295 0.1273104 0.06852094 0.4443079 0.50474346
0.22163749 0.0002529947 -0.22514299 -0.38123426 -0.38311827 -0.5529246 -0.014211686 -0.090300255
-0.38249722 -0.24902417 0.2430798 0.4623676 -0.11919673 -0.54130536 0.15188223 -0.06363658
-0.1619526 -0.42128247 0.30289918 0.14015973 0.23264018 0.3016493 -0.229295 0.21053311
-0.07583738 -0.24468027 0.36100283 -0.18289134 0.38105345 -0.24504076 -0.44302076 -0.53450686
-0.34935358 -0.5167099 0.13398613 -0.5555127 0.07293001 0.2855834 0.1927034 0.53576714
0.2936525 -0.115484945 0.31404838 -0.52865964 0.28164482 -0.44234022 0.18939236 0.34499428
-0.05392085 -0.3933843 -0.42023873 -0.09574572 0.34334487 0.0124594085 0.43313947 0.05605149
-0.18335526 -0.29175836 -0.34920546 0.1697733 -0.34850183 0.19771782 0.4832815 -0.5008264
0.08989028 -0.247427 -0.019068591 0.043160133 -0.18609288 -0.4386083 0.36475068 0.48422465
-0.15672645 -0.5307122 0.023503281 0.011264369 -0.4249065 -0.40186673 -0.368091 -0.5043459
0.4401004 -0.51491886 0.026585521 0.5656355 0.56522954 -0.10049938 0.01063201 0.49304077
-0.47615084 -0.020032316 -0.35066155 0.14953336 0.50080544 0.093260154 -0.45895854 0.05136829
0.46407142 -0.24938564 0.5037855 -0.12462129 0.11401846 -0.03869303 0.42839935 0.32019752
-0.21981029 -0.5529893 -0.37550536 -0.1321923 0.0067965975 -0.0812203 -0.052445017 0.096916035
0.45556065 0.48151168 0.5376974 -0.3178252 -0.3001447 0.27758723 0.0073039867 0.21087047
0.546824 0.5686682 0.3176322 0.0021083052 -0.22330654 -0.22642149 -0.49933225 -0.21461985
0.08593256 -0.32994393 0.23906055 0.06239197 0.43366647 0.5292587 -0.4801789 0.33175057
0.362376 0.5298895 0.109255254 -0.474411 -0.36360297 0.17877269 0.5581745 0.11984251
-0.4020954 -0.23591521 -0.07092097 -0.19286552 0.0635428 0.25736904 -0.31479654 0.40514353

model.1.running_var f4 [256]
00000000: 7856 733e d0f9 0f3e 045b ba3e 3274 aa3e
00000010: 4b5c 903e 0c5d 0b3f 0ca2 3a3e 9343 a43e
00000020: 1bd5 363e e4bd e83e 66db 0a3e 4433 e63e
00000030: 8130 e93e aa50 c93d c1e1 f43d b158 413e
00000040: a016 353e a18d 6a3e aca1 df3e 9b57 cb3e
00000050: 6e4a 7a3e 08eb cf3e 3bee 993e 38fd 2d3f
00000060: 084f ad3e c351 323e b906 203e 121e 6a3d
00000070: f84b 083f 107c 9d3d 373a 183e efe9 fb3e
00000080: 2402 053f 5867 dc3e 05f7 f53e 72a1 ae3d
00000090: e37a c03e f4a0 aa3d 06b0 af3e 4f67 9d3e
000000a0: 7080 5b3e ab6a f53e fed3 8c3e 0cff da3d
000000b0: 28d2 b43e bca3 6d3e 86a0 8d3d 0e63 6d3e
000000c0: 7028 5b3e 8016 ba3d 6c59 403e 1790 223e
000000d0: d511 853e 6414 ea3e 50f8 a73e 6298 a63e
000000e0: 9b44 d23d 42ee e83e 8371 293f 6e7f ed3e
000000f0: bed6 143f 3067 8e3e 5299 df3e df72 1c3e
00000100: addf 963e a128 243e 4cd3 713e 9259 c03e
00000110: 14f2 a33e 0151 873e fec7 903e e32d 973e
00000120: e10b 8e3e 7a35 993e 8a57 b53e 007c 153f
00000130: 0642 9b3e bbf8 ac3e 18c6 143e dbf8 d23d
00000140: 4b8a bf3d 7002 493e 8b0a d83e 4f0e 6f3e
00000150: 31e2 c33e 2579 7b3e cfaf f73e 2fe9 b43e
00000160: 0738 b73e 092c 4a3e ca32 823e 58b5 a43e
00000170: efea 9a3e 8e20 953e 4e4d 053f 81b0 073d
00000180: 8fc9 493d 937c ff3e 7dbc 2b3d 1285 0e3f
00000190: fded 9a3e a6f8 083f c52c 3c3e 6b8b 9c3e
000001a0: 4bb1 663e 1cbd 873e 235f 763e 9444 c83e
000001b0: 7c71 fd3d 0c1f ab3e f1c2 3b3e 6802 9a3e
000001c0: a758 173f 96a5 023e 1af9 e23d c2d5 c33d
000001d0: 6a9c a33e d86a 433e 080a 193e fd9b a23e
000001e0: b8a0 543d 52ee 8e3e 4ee4 073f 5b83 aa3e
000001f0: 0170 d23e 2b5e 0a3f 6e90 773d 07e0 e13d
00000200: 1465 603e dacc 713e 0226 953e 542d 963e
00000210: ef57 db3e ff5f dd3d 9253 c63e 3bac 853e
00000220: 0b49 ad3d 715c 153e 6345 e63d 3231 cf3e
00000230: 8ff8 cd3e c9e8 863d 9e15 d23e 3d55 903e
00000240: 52c5 073e 0622 1b3e f6aa 903e c5b7 dd3e
00000250: c298 b93e 0882 cc3e 5614 a33e 7f80 a33e
00000260: 6af0 243d a2da bb3e 3d41 483e c19a 323d
00000270: 5345 343e 1167 e53e b82c b23e b4ef 593e
00000280: b56c a73e 3fab 9c3e fb5d 853d de59 243e
00000290: d347 af3e 5936 023e e329 b63e bfc3 0a3d
000002a0: 7185 793e 6b33 6f3d 6975 063f a3c0 a13e
000002b0: 68f1 f63e 85de 7d3d f029 6f3e e03a 9d3e
000002c0: f660 a73e 17ad 6f3e 6554 cb3e d24d 583e
000002d0: 551a b33e e888 403e 9ddb 173f b04d 463f
000002e0: 6c4c 533e fe8a 683e 77fb 613e 642c 0c3f
000002f0: b90b d93e e0d5 a13e 3c79 323e 8bc9 793e
00000300: acfd 993e ee4d aa3e 9d89 c33e fdbf 563e
00000310: 85cf 983e 9487 213e e201 bd3d cf70 df3e
00000320: a103 a03e 45d4 c23d 0e64 5b3d 5906 b13e
00000330: 103f 883e e39d 383e defb e03e 15b7 163f
00000340: 1813 283e f8d5 633e 3e04 1e3e 0a0d cb3e
00000350: 0376 833e 2c16 f73d 8277 fd3e 9f6f da3e
00000360: baa6 ae3e 7d1d bd3e 53c4 213e 4b48 3a3c
00000370: 1835 1f3e 86f3 033f a1aa 2a3e ba30 013f
00000380: 10b2 b53e 6f4f 083e 1fe2 1c3e 5701 413e
00000390: ff67 943e 839f d33e ee9d c23e 00bb 9f3e
000003a0: 658c 163d 8050 7f3e 062c 663d d2ff 893e
000003b0: ba31 b73e 0f6e e93e 2a9e 863e 21c1 953e
000003c0: 0137 a43e 8828 403e 7329 a63e ace9 b63e
000003d0: d98e e43e be6f bb3e f5c7 c33d 2e57 013e
000003e0: f46e 143e a824 a03e 6bb0 ac3e 4f46 453d
000003f0: 73c6 de3e febe 1c3e 814e f13e 2525 c43d
0.23763454 0.1406014 0.36397564 0.33291775 0.28195414 0.54438853 0.18225878 0.32082805
0.17854731 0.45457375 0.13560256 0.44960988 0.45544818 0.098298386 0.11957122 0.1888149
0.17684412 0.2290559 0.43678033 0.39715275 0.24442455 0.40609002 0.30064568 0.67964506
0.3384936 0.17414002 0.15627564 0.057157584 0.5324092 0.07689679 0.14865957 0.49201915
0.5195639 0.43047595 0.48040023 0.08526887 0.37593755 0.083314806 0.34313983 0.3074288
0.21435714 0.47932944 0.27505487 0.106931776 0.35316586 0.23206991 0.06915383 0.23182318
0.21402144 0.09086323 0.18784112 0.15875278 0.25990167 0.45718682 0.32806635 0.32538134
0.10266992 0.45494276 0.6618883 0.46386284 0.5814017 0.278131 0.43671662 0.15278195
0.29467526 0.16031124 0.2361576 0.37568337 0.32020628 0.2642899 0.28277582 0.29527196
0.27743438 0.29923612 0.3541835 0.58392334 0.3032381 0.33783516 0.14528692 0.10301372
0.09352549 0.19629836 0.42195544 0.23345302 0.38258508 0.24557932 0.4837632 0.35334155
0.35784933 0.1974336 0.25429374 0.32169604 0.30257365 0.291264 0.5207108 0.03312731
0.049264487 0.4989973 0.041927803 0.556718 0.30259696 0.5350441 0.18376453 0.30575117
0.2252857 0.26511467 0.2405973 0.3911482 0.12375161 0.33422124 0.18336083 0.3007996
0.5911965 0.12758479 0.110826686 0.095622554 0.31955272 0.19083726 0.14945233 0.31759635
0.051911086 0.279162 0.5308274 0.3330334 0.41101077 0.5404994 0.060440473 0.11029058
0.21913558 0.23613301 0.2913056 0.29331458 0.42840526 0.108093254 0.38735634 0.26107964
0.084611975 0.14586045 0.11243703 0.4046722 0.40228698 0.06587369 0.41032118 0.28190032
0.13258865 0.15149698 0.28255433 0.43304268 0.36249357 0.39942956 0.31851453 0.31933972
0.04026834 0.3669024 0.19556136 0.043604616 0.1760457 0.44805196 0.34799743 0.21282846
0.32700124 0.305994 0.06512066 0.16049907 0.34234485 0.12716044 0.35578832 0.033878084
0.2436731 0.058398645 0.52522904 0.31592283 0.48231053 0.06197979 0.23355842 0.3070898
0.32691163 0.23405872 0.39712825 0.21123436 0.34981027 0.18802226 0.5931948 0.7746229
0.20634621 0.22709271 0.22068582 0.54755235 0.42391756 0.31608486 0.1742906 0.24393289
0.3007635 0.3326258 0.38190928 0.20971675 0.29845825 0.15774375 0.09228875 0.43640754
0.3125277 0.095131435 0.053562216 0.34575155 0.26610613 0.18028979 0.4394216 0.5887311
0.16413534 0.22249591 0.15431306 0.39658386 0.25675973 0.12064776 0.4950524 0.42663285
0.34111577 0.3693656 0.15797548 0.011369775 0.15547597 0.5154346 0.16666652 0.50464976
0.35487413 0.13311552 0.15320633 0.18848167 0.28985593 0.41332635 0.38011116 0.31197357
0.036754984 0.24933052 0.056194328 0.26952988 0.35780126 0.4559178 0.26292545 0.29248908
0.32073215 0.18765461 0.32453498 0.35725152 0.44640234 0.3660869 0.09559623 0.12630913
0.1449545 0.31277966 0.33728346 0.048162755 0.4351078 0.15307233 0.47130206 0.09577397

model.4.weight f4 [128, 256]
00000000: f35f 1dbd 9879 88bd a6a3 a6bc f946 82bd
00000010: 65e9 1ebd 1caf 28bc 7246 38bd bb0b 5a3a
00000020: 165f b93c 0a17 983d c840 efbc 6f70 44bd
00000030: 8839 84bd 4c74 cebc 4f9b 853d de07 52bc
00000040: e751 18bd 05e7 0f3d 7fca ce3c a510 393d
00000050: c0a0 21bc 6bea ddbc 7aac 1c3c 254d 1dbd
00000060: a5ff b73c 848b 77bd 5379 9d3c 32a4 2fbd
00000070: e797 773c 0912 bc3c 2935 3ebd 6b77 5bbd
00000080: 6c21 cb3c 6ab5 723c 14b4 85bd 1ce6 763c
00000090: 829b 2bbc f527 fe3c 11d5 74bd 8fc7 273c
000000a0: 9aad 3fbd 5343 bd3b eadd a03c c489 8c3a
000000b0: 1756 50bd 4ec0 233b 6c8d 03bd 82dd 80bb
000000c0: 5b45 b53c 287b 053d f420 4dbd 6cf4 24bc
000000d0: 8fd3 b0bc 5dc8 95bd 81a2 fdbc 1cca dc3c
000000e0: bb91 96bd 5afb 5dbd 6ad4 a9bc 8902 14bc
000000f0: 6a5e 373c 20e3 133d c498 2cbc 3047 c63c
00000100: 87cc d1bb 3bcc d6bc eecd 35bd 14ad 66bd
00000110: 8d0a 3ebd d897 0fbd df04 c9bc a89d bcbb
00000120: 5c28 26bd 10ba 103d 5094 9ebd 1b6b 113d
00000130: 97b1 5dbc 1e66 65bd 58b9 31bd 98fd 3a3c
00000140: f08f a03c 4187 16bd f26d aabd cc85 27bd
00000150: 80f3 92bc 24e2 1bbd e2b4 2c3c 8f52 1f3d
00000160: 4238 98bc ab13 bd3c ce9b 87bd 0c9f e53c
00000170: c7b6 9dbc 4ee3 883b 4997 b4bd 798d 30bd
00000180: 0f6e 35bb dcc0 2dbd 6870 323c 6303 c53b
00000190: 6fef f53c 9aa9 233d 83a3 063c dd50 983b
000001a0: 5eb4 8dbd 260b c3bd 6639 d2bc ec88 69bc
000001b0: 0816 06bd a3c8 dbbc 1aaa a0bd a177 79bd
000001c0: 66aa 42bd 9dd3 843c 4b1a c5bc aca9 09bd
000001d0: 4abd 61bd 20bf 7e3d b3d5 cbbb b544 343a
000001e0: 7029 83bd b14e ae3c b116 4d3d 1aca 633d
000001f0: 5895 a6bd 9a06 16bd 5b95 1bbd d568 0ebd
00000200: b414 f93b 11e8 c2bc 660c 353d 8f78 82bd
00000210: c5de f5bc f4f7 7f3c 416d bfbc 2abe 093d
00000220: b177 4dbd 0a80 cf3c 653c 83bc 2ccc 023d
00000230: 7f98 0fbd 5ced 043c 1cd5 a7bb 0291 25bd
00000240: 51f5 5bbc 6720 593c 3810 b03c 2b30 bc3c
00000250: cd94 b4bc ea48 d5bc a926 773c 2df4 15bd
00000260: 5ac3 4bbd fb0e b6bc 2102 c1bc b895 12bb
00000270: 489b 363d 208a 87bd dad0 77bb c3d5 6dbd
00000280: 75bb 83bd 71a8 7ebd 2a39 82bc 19e9 dabb
00000290: d145 92bd d9bd 163d 38f3 b83a c37a 83bc
000002a0: 60eb 0b39 c117 17bc da76 45bd 76e8 b4bb
000002b0: 99f5 503d 7796 c3bc 90dc e4bc 54b9 dfb9
000002c0: 2fda bfbc e72d 81bd 914e 11bd 9309 bd3b
000002d0: 4f38 a73c 1ec4 633c d3a1 2abd d1dc c8bc
000002e0: aba3 14bd c703 363d 4fac c3bb 2971 dd3c
000002f0: ae5b 68bb ba41 50bd 4ad8 9cbd 0eb3 3cbd
00000300: 68f9 ca3c 53b9 a73c a9de cebd 8b25 36bd
00000310: 6e71 733c cc51 673d 95d3 883c 0318 61bd
00000320: ffc3 44bd e9b6 37bd 762d 043c 175d 1c3d
00000330: 3f24 953b a343 ba3c d368 463d d033 f7bc
00000340: 8128 55bd 3e07 9bbc a517 013d 3403 213d
00000350: cc62 21bd 2243 2f3d 7e9c 9cbd 3104 893c
00000360: 7898 15bc 5473 2dbd 57b1 3c3d fd70 89bd
00000370: 679f 21bd 2913 2c3c 6e27 43bd 561b 3abd
00000380: a35e 023d d2f9 e83a 9647 4f3d 3526 db3c
00000390: 8174 d2bc 493e 153d bac5 a53c e209 813c
000003a0: 0a3a a5bc 155e 3e3d ac7f 9fbd dab5 2abd
000003b0: 2f6f 413d 7751 323d 278c 8e3b 57f1 ccbd
000003c0: ea2e 33bd 34b1 80bc 3e41 80bd 3a13 e33c
000003d0: 3be1 02bc 6b34 b5bc e301 923c d8f4 b6bb
000003e0: e0fb 99bd bb3b 3fbd b2e1 4cbd 01ab 943d
000003f0: 82d3 3bbd c3d2 203c 411e 76bc aba9 983c
-0.038421582 -0.06663817 -0.020341706 -0.06361193 -0.0387968 -0.010295656 -0.044989057 0.0008317788
0.022628348 0.07426269 -0.029205695 -0.047958788 -0.06456286 -0.025201939 0.065237634 -0.0128192585
-0.037187483 0.035132427 0.025243042 0.04518189 -0.009864986 -0.027089318 0.009562606 -0.03840365
0.022460768 -0.060435787 0.019222891 -0.0428812 0.0151119 0.022957819 -0.046437416 -0.053580683
0.02479621 0.01481376 -0.06528488 0.015069511 -0.010474088 0.031024912 -0.05977351 0.01024045
-0.04679642 0.005775848 0.019637067 0.001072221 -0.05086335 0.0024986449 -0.032117292 -0.003932656
0.022127798 0.032588154 -0.050080255 -0.01006804 -0.021585254 -0.07313607 -0.030961277 0.026951842
-0.07352015 -0.054194786 -0.02073117 -0.009033808 0.011191944 0.036105275 -0.010534469 0.024203867
-0.0064025554 -0.026220432 -0.044385843 -0.056317404 -0.04639678 -0.03505692 -0.024538456 -0.005756099
-0.040565833 0.035333693 -0.07743132 0.035502534 -0.01353111 -0.05600559 -0.04338965 0.0114130005
0.019599885 -0.036750082 -0.08321752 -0.040899083 -0.017938375 -0.03805746 0.010541173 0.038897093
-0.018581513 0.023080667 -0.06621514 0.028029941 -0.019252194 0.0041774875 -0.08817918 -0.04310367
-0.0027684008 -0.042420253 0.010891058 0.0060123666 0.030021397 0.039956667 0.008217695 0.0046483115
-0.06919168 -0.09523611 -0.025662135 -0.014253836 -0.032735854 -0.02682907 -0.07844944 -0.060905103
-0.047525786 0.016214186 -0.024060389 -0.033609077 -0.05511216 0.06219399 -0.0062205433 0.0006876693
-0.06404388 0.021277757 0.05007047 0.05561266 -0.08133954 -0.03662739 -0.037984233 -0.034767944
0.007601345 -0.023792299 0.044201277 -0.06370651 -0.030013451 0.0156230815 -0.023367526 0.03362862
-0.050162975 0.025329608 -0.01602001 0.031932995 -0.03505754 0.0081132315 -0.00512184 -0.040421493
-0.013425187 0.013252354 0.021492109 0.022972187 -0.02204361 -0.026035745 0.015084901 -0.036609817
-0.04974685 -0.02222394 -0.023560585 -0.0022367071 0.04458168 -0.06618142 -0.0037813694 -0.058065187
-0.06432239 -0.062172357 -0.015896399 -0.0066806194 -0.07142223 0.036802147 0.0014110571 -0.016049748
0.00013343757 -0.009221972 -0.04820905 -0.0055208756 0.05101547 -0.023875458 -0.027937204 -0.00042671955
-0.023419468 -0.06307583 -0.035475317 0.0057689636 0.020412592 0.013901738 -0.041658234 -0.024519356
-0.0362889 0.044437196 -0.0059714685 0.027031498 -0.0035455036 -0.05084393 -0.07658441 -0.046069197
0.02477713 0.020474112 -0.10101063 -0.044469398 0.014858587 0.056474492 0.016702453 -0.05495454
-0.04803848 -0.04485217 0.008067479 0.038174715 0.00455144 0.02273733 0.048439812 -0.030176073
-0.05204058 -0.018924352 0.03151669 0.039309695 -0.03940086 0.042788632 -0.07647036 0.016725631
-0.00913059 -0.042346314 0.046067562 -0.06711004 -0.03945866 0.010502615 -0.047645025 -0.045436226
0.031828534 0.0017774648 0.05060538 0.026751617 -0.025690319 0.036436353 0.020235885 0.015751783
-0.020169277 0.046476442 -0.07788023 -0.041677333 0.047225174 0.043534722 0.0043502036 -0.100069694
-0.043745913 -0.015709497 -0.06262444 0.027719129 -0.007988269 -0.022119721 0.017823165 -0.005583387
-0.075187445 -0.046687823 -0.050019927 0.07259179 -0.045856006 0.0098158745 -0.0150218615 0.018635591

model.4.bias f4 [128]
00000000: 3418 c63c ec63 b4bc 41f6 20bd d8d2 56bd
00000010: 29cc c5bb 4941 34bc 32d9 9e3b 1242 0e3d
00000020: 8222 64bc 9ba9 34bd 3512 633d 0649 0fbd
00000030: 6325 bc3a ea4b 3abd b6f8 60bc 2523 7b3d
00000040: 2a2a e13c 5963 f73c d6c1 3b3d 246e 0dbd
00000050: 3271 513d e58f 59bd de82 ed3a 7809 83bc
00000060: 6f8c 2c3d 652f 5e3d 52e4 073d 3ec0 703d
00000070: 35e8 1fbd 0d30 23bd 4d4a 71bd e6d1 533d
00000080: bcf1 2dbd 6b8f 0cbd b187 40ba 5444 713d
00000090: 4232 7c3d 0e11 743d 57be 033d 80e7 913c
000000a0: ba8f 913c b12e 41bd b1d9 efbc 42ee 343d
000000b0: 19b8 b23c 2979 e83c 946a 393d de33 0cbd
000000c0: 7391 16bb f2cf 553d 8129 203d f710 ab3c
000000d0: c627 43bb c1c3 ecbc 6a7a 82bd 63fb 3d3a
000000e0: 2570 c2bc 523e 5abd 502e d4bc 2599 a4bc
000000f0: b625 18bd d88b 10bd 3743 5e3c dfa5 9cbb
00000100: 2701 2fbd 805a dc3b 6b98 22bd c77c 00bd
00000110: b40f 263c 7f94 4bbc b63c 0fbd 3464 113c
00000120: f0b6 30bd 5199 51bd 6917 7d3c efbb 633d
00000130: 66f7 02bd d5cb 203c 7698 bd3c f530 8e3c
00000140: 2afb 853a 14fb 5bbc 6dcc 203d 2b3c 483d
00000150: 148d 683d fc30 ff3c 3030 533d b026 10bd
00000160: 725a 32bd 6a3b ab3c 7f8a 1c3d ea41 523d
00000170: 69e2 35bd b134 3bbd 9ad4 95bc 9d60 3cbd
00000180: 6be7 4e3d 8d5a ce3b 7221 c53c 3ea2 31bd
00000190: db17 af3c d21d ae3b aa8a 26bd a6e0 bbbc
000001a0: c3d4 26bd 505b 1a3d 5899 3abc 3a36 32bd
000001b0: a1bf 47bd a96b a3bc af40 fcbb 9c6a 28bd
000001c0: 2304 0e3d db6b 1bbd 5dd4 85bb 318a 47bc
000001d0: ba83 193b 7029 623d df02 d1bc d587 a63b
000001e0: 1f16 66bd 4e16 183d 7d14 1dbd 537a 783d
000001f0: 60b3 c03c eb91 863c 6a75 693d a0c6 293d
0.024181463 -0.022020303 -0.039297346 -0.05244717 -0.0060363007 -0.011001893 0.004847669 0.03473098
-0.013924243 -0.04410706 0.055437285 -0.03498175 0.0014354404 -0.045482554 -0.013731172 0.061312813
0.027485926 0.03019874 0.045839153 -0.034528866 0.051133342 -0.053115744 0.0018120667 -0.015995726
0.042126115 0.054244418 0.033176728 0.058777086 -0.03903981 -0.039840747 -0.05890875 0.051713847
-0.042466864 -0.03431646 -0.00073444383 0.058903053 0.061571367 0.059586577 0.032163944 0.017810583
0.01776873 -0.04716367 -0.029278608 0.044172533 0.0218163 0.028378086 0.045267656 -0.034229152
-0.0022974878 0.052200265 0.03910208 0.020882113 -0.0029778345 -0.028901936 -0.06371005 0.00072472374
-0.023735115 -0.05328209 -0.02590099 -0.020092556 -0.03714534 -0.035289615 0.01356583 -0.0047805156
-0.04272571 0.0067246556 -0.03969614 -0.031368997 0.01013558 -0.012425541 -0.034970008 0.008873988
-0.043143213 -0.051171605 0.015447476 0.05559915 -0.03197422 0.009814222 0.023143988 0.017357329
0.0010221947 -0.013426561 0.039257456 0.048885506 0.056775168 0.031151287 0.051559627 -0.035193145
-0.043543287 0.020902354 0.038218018 0.05133239 -0.044405375 -0.045704547 -0.018289853 -0.045990575
0.050513666 0.0062974156 0.0240638 -0.043367617 0.02137368 0.0053136135 -0.040659584 -0.02293427
-0.04073025 0.03768474 -0.011389099 -0.043508746 -0.048766736 -0.019948797 -0.0076981406 -0.041117296
0.034671914 -0.037944656 -0.0040841536 -0.0121789435 0.0023424462 0.0552153 -0.025514064 0.0050821104
-0.05617344 0.037130646 -0.038349617 0.060663532 0.023523033 0.016427001 0.05699674 0.04144919

model.5.weight f4 [128]
00000000: 0fe4 7b3f 330f 7d3f 5a04 7c3f cf57 7c3f
00000010: 74d2 793f 2abf 7f3f dd1d 7b3f 3bbc 7a3f
00000020: fc89 7c3f fb06 793f e750 7f3f a482 803f
00000030: f97d 7a3f 3a03 7e3f de4d 7d3f c64a 823f
00000040: 9f35 723f 67c4 7b3f 8bb0 7d3f 7fa4 7a3f
00000050: 2a38 7d3f 86c1 7d3f ad6b 7c3f 41c0 7f3f
00000060: 3c7b 7b3f 438c 813f 9fa4 7b3f 43e2 793f
00000070: a96c 803f cf59 803f b759 803f 6bcd 7e3f
00000080: e4d9 7f3f b918 763f dab0 7f3f b0ee 733f
00000090: 837e 783f d300 803f 003e 7f3f 53ec 803f
000000a0: 1ce5 773f 46a6 7e3f d577 7b3f 30e4 783f
000000b0: e4cf 7d3f 6aaf 7e3f 1404 743f 85d5 7d3f
000000c0: b3fc 7f3f 1541 733f e4d5 7e3f 73a5 7c3f
000000d0: 6fb4 813f 1fd0 7c3f b8ab 7c3f 45a8 783f
000000e0: 654a 7b3f 81c9 7c3f 37e7 7a3f 9e55 7a3f
000000f0: 0732 7b3f fa24 7e3f 3711 7a3f e817 7c3f
00000100: 4ef7 7d3f a940 7b3f 7da3 7e3f 3406 7e3f
00000110: 11ad 7b3f d65f 7c3f 06f5 763f b6e8 793f
00000120: 0f5c 7b3f 977d 7c3f a7bd 7d3f 1f35 7a3f
00000130: 6134 773f ca7a 813f ae49 7b3f 4b06 813f
00000140: 0adb 7e3f b053 813f 872f 763f daf1 7a3f
00000150: 84f3 763f f164 7a3f ceee 803f 78ee 773f
00000160: e70e 803f 6ab0 793f 90dc 793f 72a2 7d3f
00000170: dc51 7d3f 465f 7b3f 7d8e 7a3f bbf7 7a3f
00000180: 5747 7c3f c49d 7f3f d3ad 793f 4e9b 7d3f
00000190: 4e62 7e3f 1bbf 773f 1057 803f 99bd 7b3f
000001a0: e10b 803f a0ae 803f 073e 7c3f ae6b 763f
000001b0: 197a 7b3f ac66 813f 083b 813f 9359 7d3f
000001c0: d9b5 783f 8938 813f 479d 7d3f 9200 7c3f
000001d0: 5909 7c3f 2b8c 7b3f c602 7d3f 39dd 7d3f
000001e0: 1a4e 793f eea8 793f bec7 803f 31d3 803f
000001f0: 66a1 793f 9eba 7b3f 553f 7d3f 026d 7c3f
0.98394865 0.9885132 0.9844414 0.98571485 0.9758675 0.9990107 0.9809244 0.97943467
0.9864805 0.97276276 0.9973282 1.0039868 0.9784847 0.99223673 0.9894694 1.0179069
0.9461307 0.9834656 0.9909751 0.9790725 0.98913825 0.9912342 0.986018 0.9990273
0.98234916 1.012093 0.98298067 0.97610873 1.003316 1.0027407 1.0027379 0.9953219
0.9994185 0.96131474 0.9987923 0.95286083 0.9706804 1.0000252 0.9970398 1.007212
0.9683397 0.99472463 0.98229724 0.97223186 0.9914534 0.9948641 0.9531872 0.9915393
0.99994963 0.9502118 0.9954512 0.98689955 1.0133189 0.9875507 0.9869952 0.9713176
0.9816039 0.9874497 0.98009056 0.9778689 0.9812321 0.9927517 0.9768252 0.9847398
0.9920548 0.9814554 0.99468213 0.99228215 0.98310953 0.98583734 0.96467626 0.97620714
0.98187345 0.98629135 0.9911751 0.97737306 0.965643 1.0115597 0.981593 1.0080045
0.9955298 1.0103664 0.9616627 0.98025286 0.96465325 0.97810274 1.0072877 0.9684825
1.0004548 0.9753481 0.97602177 0.99075997 0.9895303 0.9819225 0.9787367 0.98034257
0.98546356 0.99850106 0.9753086 0.990651 0.9936875 0.9677598 1.0026569 0.9833618
1.0003625 1.0053291 0.98532146 0.96258056 0.9823318 1.0109458 1.009614 0.98964804
0.9715248 1.0095378 0.9906811 0.9843837 0.98451763 0.98260754 0.98832357 0.99165684
0.973848 0.9752339 1.0060956 1.006445 0.975119 0.9833163 0.9892476 0.9860383
